a3/best_model_CartPole-v1_2.pt (torch, 4895 bytes, 4 tensors)

fc1.weight f4 [120, 4]
0	0x3ebdb4ab	0.370519
1	0x3fe21c05	1.7664801
2	0x402ad083	2.6689765
3	0x400092a1	2.0089495
4	0x3dafbb0a	0.08580597
5	0xbdf78e23	-0.12087657
6	0x3f0c333e	0.5476569
7	0xbe650073	-0.22363453
8	0xbf28ac00	-0.6588745
9	0xbfaa8f7a	-1.3325036
10	0xc03a5620	-2.9115067
11	0xbff415ae	-1.9069116
12	0x3f553af3	0.83293074
13	0x3f572564	0.8404143
14	0x3fbcbae0	1.474453
15	0x3f4acf3a	0.7922245
16	0xbe08e7d4	-0.13369685
17	0x3e0808c0	0.13284588
18	0xbcd19500	-0.025583744
19	0x3dfd8733	0.12379303
20	0xbf4fe52b	-0.8120906
21	0x3e60de64	0.21959835
22	0x3d684814	0.056709364
23	0x3f68b29e	0.9089755
24	0x3f0ade6c	0.5424564
25	0x3f1da1b4	0.61574864
26	0x3ef93d98	0.48679805
27	0x3f86b146	1.052285
28	0x3f2afdc9	0.66793495
29	0x3e1c0363	0.15235667
30	0xbec89026	-0.39172477
31	0xbf0d7e09	-0.5527044
32	0xbf9c34ad	-1.2203575
33	0xbe06a5b2	-0.13149145
34	0xbf1a2681	-0.60215
35	0xbed5570f	-0.41667983
36	0x3dde31a5	0.10849313
37	0x3f54f41d	0.8318499
38	0x3f92fd64	1.1483579
39	0x3ff1d1d6	1.8892162
40	0x3e819e42	0.25316054
41	0x3d6cb4d8	0.057789654
42	0x3eb49457	0.35269424
43	0xbebbe2f1	-0.3669658
44	0x3d6f2246	0.058382295
45	0x3e9a1106	0.30091113
46	0x3f0018fa	0.5003811
47	0x3dd12543	0.10212185
48	0x3ea5e30f	0.32399794
49	0x3e3f1d13	0.18663435
50	0xbeb0b94c	-0.3451637
51	0x3e2c6561	0.16835548
52	0xbec27130	-0.3797698
53	0xbe6f2c29	-0.2335669
54	0x3eb98eb4	0.36241686
55	0xbd605c46	-0.0547755
56	0xbfa63543	-1.2985004
57	0xbf78e9ad	-0.9723156
58	0xbf651b6b	-0.8949496
59	0xbf7d2264	-0.988806
60	0xbcf5f502	-0.030024055
61	0x3ee07695	0.4384047
62	0x3f373b8f	0.71575254
63	0x3f2a4b74	0.6652138
64	0x3ee9b3dc	0.45645034
65	0xbdba99f4	-0.091113955
66	0x3e1cb6da	0.15304127
67	0x3d50454b	0.050847333
68	0xbe32cbdc	-0.17460579
69	0x3e5fbf88	0.21850407
70	0x3c31ff1c	0.0108640455
71	0xbd9a5a97	-0.0753681
72	0x3ee4a91d	0.44660273
73	0xbdde0e47	-0.10842567
74	0xbef829dc	-0.48469436
75	0xbe4d9581	-0.20076562
76	0x3f0eb2c5	0.5574153
77	0x3ee789da	0.4522236
78	0x3dbf42d7	0.093389206
79	0xbebb1985	-0.36542907
80	0xbf7c4a77	-0.98551124
81	0xbf00218a	-0.50051177
82	0xbf52333c	-0.8210943
83	0xbebb18d9	-0.36542395
84	0x3f832e81	1.0248567
85	0xbf53d59e	-0.8274783
86	0xbed5ffde	-0.41796774
87	0xbf7776a7	-0.96665424
88	0xbcdbee12	-0.02684692
89	0xbe682560	-0.22670507
90	0x3e9ecf5c	0.31017578
91	0x3e186f38	0.14886177
92	0x3f24ef2a	0.64427435
93	0x3f604dac	0.8761852
94	0x3f25d343	0.64775485
95	0x3f17e6ab	0.59336346
96	0xbd6b53bc	-0.057452902
97	0x3e060846	0.13089094
98	0x3ebb41e0	0.36573696
99	0x3edfde83	0.4372445
100	0x3eadb9ac	0.3393072
101	0xbe62f887	-0.22165118
102	0x3e99bfa7	0.30029032
103	0x3d9ee74e	0.077589616
104	0x3f0213a8	0.50811243
105	0xbdd4bdd2	-0.10387768
106	0x3ea05a11	0.31318715
107	0xbf112674	-0.566993
108	0xbea5c10a	-0.3237384
109	0xbee57598	-0.4481628
110	0x3d209a61	0.039209727
111	0xbefc0941	-0.4922581
112	0x3f84f151	1.0386144
113	0x3fccec46	1.6009605
114	0x3f4b66d8	0.794538
115	0x3f7e5368	0.9934602
116	0x3e101e5a	0.14074078
117	0x3e889f45	0.26684013
118	0x3d87e3f6	0.06635277
119	0x3e1102ca	0.1416122
120	0x3ebfbf29	0.3745053
121	0x3eb6dd1e	0.35715574
122	0x3eebcce7	0.46054766
123	0x3f0314ba	0.512035
124	0xbe809b1f	-0.25118348
125	0x3ef57042	0.47937208
126	0xbe271ee1	-0.16320373
127	0x3e818f67	0.2530472
128	0x3ed4eb04	0.41585553
129	0xbdf2dcc0	-0.11858511
130	0x3f00e401	0.50347906
131	0x3c00b131	0.007854746
132	0xbe250cb7	-0.16118132
133	0xbdb8c8a8	-0.09022647
134	0x3e70d50a	0.23518768
135	0xbd12ab52	-0.035807915
136	0x3eb66e3e	0.35630983
137	0xbee57481	-0.44815448
138	0x3f055d06	0.5209507
139	0xbef835e6	-0.4847862
140	0x3f0a48ed	0.54017526
141	0xbeea9aa5	-0.4582111
142	0xbf86b5cf	-1.0524234
143	0xbf9a5ef6	-1.206023
144	0x3f27c880	0.65540314
145	0xbf0188d9	-0.5059944
146	0xbf658be9	-0.8966661
147	0xbf977c1f	-1.1834754
148	0xbfa29633	-1.2702087
149	0xbf8a6a99	-1.0813781
150	0xbf3ec0be	-0.7451285
151	0xbf3b232a	-0.7310053
152	0x3ebd504c	0.36975324
153	0xbe273194	-0.16327506
154	0x3e8430b0	0.25818396
155	0xbe970aed	-0.29500523
156	0x3f310243	0.69144076
157	0x3f3f47a6	0.747187
158	0xbbfaba8f	-0.007651634
159	0x3efa2d22	0.4886256
160	0xbef941ce	-0.48683017
161	0xbe6f3d43	-0.23363213
162	0xbdb82529	-0.08991463
163	0x3f3fcbc5	0.749203
164	0x3f01e85a	0.50745165
165	0xbed239a1	-0.41059592
166	0x3eeec02e	0.46630996
167	0xbeac3b89	-0.33639172
168	0xbf102816	-0.56311166
169	0x3a18fd4b	0.00058360834
170	0x3e4af78f	0.19820999
171	0x3f851a97	1.039874
172	0x3f40a970	0.7525854
173	0xbedcf5ec	-0.43156374
174	0xbdf43739	-0.119245954
175	0xbe9f03e6	-0.31057662
176	0x3d999718	0.07499522
177	0xbedc31e5	-0.43006817
178	0x3deab222	0.114597574
179	0xbeff5558	-0.498698
180	0xbed286a1	-0.4111834
181	0xbe304988	-0.1721555
182	0xbfc3f4dc	-1.53091
183	0xbf4b2aff	-0.7936248
184	0x3bbf8cda	0.0058456482
185	0x3ede97cd	0.4347519
186	0xbd95d0ed	-0.0731524
187	0x3d9640d5	0.073365845
188	0x3e7eb691	0.24874331
189	0xbf353d56	-0.70796716
190	0xbfbb0b5a	-1.4612839
191	0xbfd95b6a	-1.6981022
192	0x3ea507aa	0.3223241
193	0xbecabb9a	-0.39596254
194	0xbec20385	-0.3789331
195	0xbdf89d20	-0.12139344
196	0x3e5d77f0	0.21627784
197	0xbda0e515	-0.07856194
198	0xbe72299f	-0.2364869
199	0xbdbf8f3c	-0.09353492
200	0xbf3ff339	-0.74980503
201	0x3e426ccd	0.18986817
202	0x3d0dc653	0.034612965
203	0x3f8770f1	1.0581342
204	0x3f626fe9	0.8845201
205	0xbf537e7d	-0.8261488
206	0xbf7cbbc9	-0.9872404
207	0xbfa7df27	-1.3114976
208	0xbe2a83ca	-0.16651836
209	0xbf712142	-0.9419137
210	0xbf1863d6	-0.5952734
211	0xbf68860d	-0.90829545
212	0xbd4a5e5d	-0.049406398
213	0x3e728e04	0.23686987
214	0x3e851832	0.25995022
215	0x3d81cc88	0.06337839
216	0x3f62ef0a	0.88645995
217	0x3f61590a	0.8802649
218	0xbc875fec	-0.016525231
219	0xbe9ced1f	-0.3064966
220	0xbdfd88ad	-0.123795845
221	0x3e034147	0.1281787
222	0x3e427efb	0.18993752
223	0xbd983f58	-0.07433957
224	0xbf86dbbc	-1.0535808
225	0x3e09cf43	0.1345797
226	0x3f4964a4	0.7866919
227	0x3f71072c	0.9415157
228	0xbdacf817	-0.08445757
229	0xbd31ec0d	-0.043438006
230	0x3e349995	0.17636712
231	0x3e847329	0.2586911
232	0x3da14ba5	0.07875756
233	0x3e5cf663	0.21578364
234	0xbda8aa24	-0.08235577
235	0x3e511564	0.20418316
236	0xbf28f247	-0.65994686
237	0xbfd0319c	-1.626514
238	0xc0756044	-3.8340006
239	0xbfd4dd0d	-1.6629959
240	0x3f4111fb	0.7541806
241	0x3ed82a3e	0.42219728
242	0xbeac3b1b	-0.33638844
243	0xbea458a2	-0.3209887
244	0xbea6acc5	-0.32553688
245	0xbe1348ff	-0.14383315
246	0x3dd94f25	0.10610799
247	0x3d5a3e5a	0.05328212
248	0x3ecb3798	0.39690852
249	0x3e187636	0.14888844
250	0x3eb25aa8	0.3483479
251	0x3dc10458	0.09424657
252	0x3cf11972	0.029431079
253	0x3e709518	0.23494375
254	0xbe047109	-0.12933744
255	0x3e501127	0.20319043

fc1.bias f4 [120]
0	0xbc572762	-0.013131948
1	0x3ead01fd	0.3379058
2	0xbfd338a7	-1.6501664
3	0x3e70fb2a	0.23533311
4	0x3f70bb42	0.9403573
5	0xbfaeee36	-1.3666446
6	0xbf918d5e	-1.1371267
7	0xbf6ee83c	-0.9332311
8	0xbf861737	-1.0475835
9	0xbf64650e	-0.892167
10	0x401bb44c	2.4328794
11	0x4022eedd	2.545829
12	0xbef978fa	-0.4872511
13	0xbf71760b	-0.94320744
14	0xc02b2e7d	-2.6747124
15	0xbd5e61a2	-0.05429233
16	0x4015d1d0	2.340931
17	0x3f5e20e0	0.86768913
18	0xbeffae8b	-0.49937853
19	0xbf3a7be5	-0.728453
20	0xbfacf04a	-1.351083
21	0xbeb8137b	-0.35952362
22	0x3eb2b9bf	0.34907338
23	0xbcc5abcd	-0.024129773
24	0x3e8a7382	0.2704125
25	0xbe0a8f1f	-0.13531159
26	0xbec63d05	-0.3871843
27	0xbf6a6aee	-0.9156941
28	0xbda92ad0	-0.08260119
29	0x402dac41	2.7136385
30	0xbf63a7a3	-0.8892767
31	0x3f73d2a0	0.95243263
32	0x3fe4d0d3	1.7876228
33	0x3d5c40f6	0.05377289
34	0x40122ad1	2.2838633
35	0x3dc1445d	0.094368674
36	0x3f37e136	0.7182802
37	0xbfd77ecb	-1.6835569
38	0xbdfb3813	-0.12266555
39	0xbd70607e	-0.058685772
40	0xbf5840a0	-0.8447361
41	0x40189820	2.384285
42	0xbe8d1c66	-0.2756073
43	0x3c43c2ee	0.01194833
44	0x401583b3	2.3361633
45	0xbe7e913c	-0.2486009
46	0x3fc8e56a	1.5695012
47	0xbf8f6931	-1.1203977
48	0x3f90e67c	1.1320338
49	0x3f47f7b1	0.7811232
50	0xbf1261e9	-0.5718065
51	0xbf4510dc	-0.7697885
52	0xbe1ac4c1	-0.15114118
53	0x4004ddfe	2.0760493
54	0xbf6c7a5a	-0.92374194
55	0x3e3f3e0a	0.1867601
56	0xbff85e81	-1.940384
57	0x3dfda3c7	0.12384754
58	0x3fbe732e	1.48789
59	0xbf9a5f2c	-1.2060294
60	0xbf813769	-1.0095035
61	0xbf3f6e82	-0.74777997
62	0xbefc2b45	-0.49251762
63	0x3f1a6a51	0.60318476
64	0xbf8d61d4	-1.104548
65	0xbd57da2e	-0.052698307
66	0xbfa594ff	-1.2936095
67	0x3f045f80	0.5170822
68	0xbf6f90ba	-0.9358021
69	0xbe6f6c4e	-0.23381159
70	0xbfd127e7	-1.6340302
71	0xbf235447	-0.6380047
72	0xbea264a9	-0.31717423
73	0x3df94440	0.12171221
74	0xbf16aa77	-0.5885386
75	0x3f81a5c1	1.0128709
76	0x3f1e66f3	0.6187584
77	0x3f0a9964	0.54140306
78	0xbe46c7a4	-0.19412094
79	0x3f9ab02a	1.2085011
80	0x3e61e70f	0.22060798
81	0xbfe1bb6e	-1.7635324
82	0x3fe414dc	1.7818866
83	0xbf847483	-1.0348057
84	0x3fb40268	1.4063234
85	0x3f3a353a	0.7273747
86	0xbf846c1e	-1.0345495
87	0xbf2a9150	-0.6662798
88	0x3f958b5b	1.1683153
89	0xbed79e85	-0.42113128
90	0x3ff60d53	1.9222816
91	0xbec3a49e	-0.3821153
92	0xbdf1bd52	-0.11803688
93	0x4005cb6c	2.090541
94	0x3dfaab49	0.12239701
95	0x40518770	3.2738914
96	0xbef407df	-0.47662255
97	0x40442341	3.0646517
98	0x401567bc	2.3344564
99	0xbf596681	-0.84922034
100	0x4016ea9d	2.3580697
101	0x3fec319c	1.845264
102	0xbeff7475	-0.49893537
103	0xbf7af86b	-0.98035306
104	0x3da46c13	0.08028426
105	0x3f7fa521	0.9986134
106	0x3f1e7aa7	0.619059
107	0xbf1b5b54	-0.6068623
108	0x3fa2aed4	1.2709603
109	0x3f675550	0.9036455
110	0xbf985d5c	-1.1903491
111	0xbea2cfd9	-0.317992
112	0xbf8252f3	-1.0181564
113	0x3ea60db6	0.32432336
114	0xbe802632	-0.2502914
115	0x3f6a029c	0.9141023
116	0xbf51b77f	-0.8192062
117	0x3e9f39a1	0.31098655
118	0x3f9b37e5	1.2126433
119	0xbec18670	-0.3779788

fc2.weight f4 [2, 120]
0	0xc027a062	-2.619164
1	0x3e837e66	0.25682372
2	0xc04563c8	-3.0842152
3	0xbfc12feb	-1.5092748
4	0x3f0feb25	0.5621818
5	0xbf60f9eb	-0.87881345
6	0xbf92f982	-1.1482394
7	0xbf70b032	-0.9401885
8	0xbf8c22d7	-1.0948132
9	0xbfc0c3da	-1.5059769
10	0x3fc0a6fa	1.5050957
11	0x3fc8a0d4	1.5674081
12	0xbe4bd375	-0.19904883
13	0xbef09d41	-0.46994975
14	0xc00a8453	-2.1643264
15	0xbf5fef48	-0.8747449
16	0x3fa494f6	1.2857959
17	0x3f1318c2	0.5745965
18	0xbea8f77a	-0.3300131
19	0xbf23452d	-0.6377743
20	0xbf9caff8	-1.2241201
21	0xbf96e8de	-1.1789815
22	0x3dcdb08c	0.10043439
23	0xbf4f1045	-0.808842
24	0xbe98a5fe	-0.29814142
25	0xbe86515f	-0.26233956
26	0xbf11c601	-0.56942755
27	0xbf05c9e1	-0.5226117
28	0xbfc0c442	-1.5059893
29	0x3fcd52b9	1.604087
30	0xbf34907c	-0.70532966
31	0x3f119bc1	0.56878287
32	0x3f825661	1.0182611
33	0x3db27403	0.08713534
34	0x3fba970d	1.4577347
35	0xbf72584f	-0.94666
36	0xbf186c20	-0.59539986
37	0xbfbc1a2d	-1.4695488
38	0xbe9a0e2a	-0.3008893
39	0xbf29fab4	-0.6639817
40	0xbf11714b	-0.56813496
41	0x3fbadf72	1.459944
42	0xbf6d0f3e	-0.9260138
43	0xbef3fc4c	-0.47653425
44	0x3fc8af13	1.5678428
45	0xbf559960	-0.83437157
46	0x3f71b659	0.94418865
47	0xc0079054	-2.118184
48	0x3f19f4b5	0.6013902
49	0x3ecf08fc	0.40436542
50	0xbf8ce3f0	-1.1007061
51	0xbfbd399c	-1.4783206
52	0xbf04fb34	-0.51945806
53	0x3fa6a4fa	1.3019097
54	0xbf4de57c	-0.8042829
55	0x3e0a8d6d	0.13530512
56	0xbfa6d54e	-1.3033845
57	0xbe103a8c	-0.14084834
58	0x3f5062fb	0.8140103
59	0xc030867e	-2.7582088
60	0xbf4d59ae	-0.80214965
61	0xbec3b7d8	-0.382262
62	0xbeab452a	-0.33451205
63	0x3e80e239	0.25172594
64	0xbf874e51	-1.0570775
65	0xbf7108a3	-0.94153804
66	0xbfb1f49d	-1.3902775
67	0x3eb241e0	0.34815884
68	0xbf32d39e	-0.6985415
69	0xbf0fe1fd	-0.56204206
70	0xbf9580a9	-1.1679889
71	0xbf05687e	-0.5211257
72	0xbe7778c7	-0.24167167
73	0xbd2c0087	-0.04199269
74	0xbebb4c54	-0.3658167
75	0x3f17c8c1	0.592907
76	0xbf59063b	-0.8477513
77	0x3ea1e569	0.3162034
78	0xbf0ce122	-0.55031025
79	0x3f2c9f98	0.6743102
80	0xbe37b54d	-0.17940255
81	0xc00a7288	-2.1632404
82	0x3f982a89	1.1887981
83	0xc01113bd	-2.2668297
84	0x3f380957	0.7188925
85	0x3eb2a541	0.34891704
86	0xbf69f66c	-0.91391635
87	0xbfdf6a11	-1.7454244
88	0x3f18fef5	0.59764034
89	0xbe3b92be	-0.18317696
90	0x3f9157fd	1.1354977
91	0xbf2ab53d	-0.666828
92	0xbe6f2b11	-0.23356272
93	0x3f93c317	1.1543912
94	0xbf4575e1	-0.77132994
95	0x40038c5c	2.0554419
96	0xbeadf097	-0.33972618
97	0x3ff825d9	1.938655
98	0x3fabb9b7	1.3416051
99	0xbf05a1ee	-0.5220021
100	0x3fb451a3	1.4087414
101	0x3f81776f	1.0114573
102	0xbe225310	-0.15851998
103	0xbfb79557	-1.434245
104	0xbf8f5eb6	-1.1200778
105	0x3f16e46a	0.5894228
106	0x3ea43cc3	0.32077608
107	0xbf9aa1e9	-1.2080661
108	0x3f63f64f	0.8904771
109	0x3f1d2561	0.6138516
110	0xbfa649b7	-1.2991246
111	0x3d9bb4fa	0.07602878
112	0xbf81e5c9	-1.014825
113	0xbf4f8f45	-0.81077987
114	0xbe95cf9c	-0.29259956
115	0x3ed4c995	0.41560045
116	0xbf7460e6	-0.95460355
117	0xbf288bb3	-0.65838164
118	0x3f3fc469	0.74909073
119	0xbe3cc782	-0.18435481
120	0xc01896f3	-2.3842132
121	0x3e09592a	0.1341292
122	0xbffd3d4f	-1.9784335
123	0xbf91f26f	-1.140211
124	0x3f027d5f	0.5097255
125	0xbfa4bcb5	-1.2870089
126	0xbf933cf0	-1.1502972
127	0xbf2af10d	-0.66774064
128	0xbf83fa33	-1.031073
129	0xbfe58f1b	-1.7934297
130	0x3fbabb4b	1.4588407
131	0x3fc67ebd	1.5507427
132	0xbe848abe	-0.25887102
133	0xbf16985e	-0.58826244
134	0xc004217f	-2.0645444
135	0xbeba9e6b	-0.36448988
136	0x3fc626b7	1.5480565
137	0x3ef3a0a3	0.47583494
138	0xbe3d8d57	-0.18510948
139	0xbf295d7e	-0.6615828
140	0xbf9a8d3e	-1.2074354
141	0xbf7bff9f	-0.9843692
142	0x3dda4f3b	0.10659643
143	0xbf5bd665	-0.85874015
144	0x3d65d69c	0.05611287
145	0xbe833609	-0.25627163
146	0xbec6d603	-0.38835153
147	0xbf14e1b4	-0.58156896
148	0xbfbd8af4	-1.480803
149	0x3fd67c77	1.6756734
150	0xbf55e7fc	-0.83557105
151	0x3f11fbac	0.57024646
152	0x3f9033fe	1.1265867
153	0xbd6b3ce6	-0.057431124
154	0x3fb4ccbc	1.412498
155	0xbf9e0bff	-1.2347411
156	0xbfc76a60	-1.5579338
157	0xbfdb282d	-1.7121636
158	0xbe8fc65d	-0.28081027
159	0xbf169e99	-0.5883575
160	0xbf22bccd	-0.6356934
161	0x3fc0054e	1.5001619
162	0xbee2780a	-0.44232208
163	0xbed8934c	-0.4229988
164	0x3faec959	1.3655196
165	0xbf9fed37	-1.2494267
166	0x3f6f29c1	0.93423086
167	0xbf802111	-1.0010091
168	0x3f453cc8	0.7704587
169	0x3ed78306	0.4209215
170	0xbefccab0	-0.49373388
171	0xbfa65e70	-1.299757
172	0xbf87fd36	-1.0624149
173	0x3f9f7af9	1.2459403
174	0xbf882fd0	-1.0639591
175	0x3d8782c6	0.0661674
176	0xbfe0e03a	-1.7568429
177	0xbd32acbf	-0.043621775
178	0x3f75ba3d	0.959873
179	0xc044b7e1	-3.073723
180	0xbf6da431	-0.9282866
181	0xbed9d4ab	-0.42545065
182	0xbeae510a	-0.34046203
183	0x3eb63851	0.3558984
184	0xbf7e6713	-0.9937603
185	0xbf5cd9aa	-0.8626963
186	0xbf8d74f8	-1.1051321
187	0x3eca6828	0.3953259
188	0xbf25b6bd	-0.6473196
189	0xbf07496a	-0.52846396
190	0xbfa71a76	-1.305495
191	0xbf01ac1d	-0.5065325
192	0xbe80254f	-0.25028464
193	0x3d486acb	0.04892997
194	0xbeacab56	-0.3372447
195	0x3f1f42f1	0.6221152
196	0xc015dd5d	-2.341636
197	0x3ead07dc	0.3379506
198	0xbf005f7b	-0.5014569
199	0x3f32718d	0.69704515
200	0xbf14a575	-0.5806497
201	0xbfe6e5ac	-1.803884
202	0x3f834691	1.025591
203	0xbff1ec56	-1.8900249
204	0x3f690c8e	0.9103478
205	0x3ee38b02	0.44441992
206	0xbf789de6	-0.97115934
207	0xbfdbcf3e	-1.717262
208	0x3f34d179	0.7063213
209	0xbe524133	-0.20532684
210	0x3f980bb1	1.1878568
211	0xbf909dd5	-1.1298167
212	0xbe3b4814	-0.18289214
213	0x3fa9b565	1.3258482
214	0xbf41d7c0	-0.75719833
215	0x3ffc5556	1.9713542
216	0xbf08392c	-0.5321224
217	0x3feabb09	1.8338329
218	0x3fbdbb2b	1.4822744
219	0xbefce5db	-0.49394116
220	0x3fb812d8	1.4380751
221	0x3fa18eec	1.2621741
222	0x3bf76a24	0.0075504947
223	0xbf962de3	-1.1732754
224	0xbfbb4041	-1.4628984
225	0x3f297271	0.6619025
226	0x3eac7ff6	0.33691376
227	0xbfae3be2	-1.3612025
228	0x3f1fc7de	0.6241435
229	0x3ef26bdf	0.47347924
230	0xbfabb5ed	-1.3414894
231	0xbd6f83ae	-0.05847519
232	0xbf80c6ce	-1.006067
233	0xbea3c3ab	-0.3198522
234	0xbe19aab8	-0.1500653
235	0x3f184d64	0.5949309
236	0xbf456b30	-0.7711668
237	0xbf6600e2	-0.898451
238	0x3f40ee9f	0.75364107
239	0xbe763b6a	-0.24046102

fc2.bias f4 [2]
0	0x3fe77a99	1.8084289
1	0x4006407c	2.0976858
