BC-DQN-DDQN/behavioral_cloning_CartPole-v0.pt (torch, 4831 bytes, 4 tensors)

fc1.weight f4 [120, 4]
00000000: 9531 8d3f a30a 86c0 17c8 d3c0 e360 2ac0
00000010: e617 40bf 7c82 173e 5d03 d2bf 24b9 85c0
00000020: 9061 3cbf 6575 72bf f324 1fbf 241d 1b3f
00000030: 4a97 a0bf 7d32 a73e 4f13 ccbf f7c2 e1c0
00000040: fc4c 1e40 f081 7ac0 ac04 b0c0 8c9f 10c1
00000050: f9e5 da3d f997 1ebf a9a2 f33f f740 2740
00000060: 9872 2ebe 8c90 8ebe fcab 3e3e 6c35 9bbe
00000070: ac43 55be f491 2ebe a87d c9bd 383e 78be
00000080: 54df 07c0 2446 03bc e5a0 d8bf 9b5f bc3e
00000090: 1502 01c0 8a8d 813f ba1e 05c0 0b0d 0cc0
000000a0: 4fb9 40bf d3bf 813f d8c6 96bf fdc3 99c0
000000b0: 1104 2abf 04af 97bf 69d1 b9bf a0d7 1abf
000000c0: a899 a1be 8441 c73e 9849 733e 0c9b c5be
000000d0: 6f12 eebc 2a4b 45bd 4e95 b2bf d45c 20c0
000000e0: ab9e 1f3f 6637 68c0 4499 9ec0 d7fb 37c1
000000f0: 54bc c3be 2ccd 693e 5c42 ff3e 9eb8 a1be
00000100: f254 94be 98d2 233e 3480 19be e445 243e
00000110: e308 9a3f 80a5 cebf 4f10 d1bf 5ac6 723e
00000120: a0c5 08be be44 933e 0042 103b 80b0 dc3e
00000130: 62f2 c9be 1744 22bf e272 9cc0 2788 02c1
00000140: 9273 ccbe ac0d 633e cc02 48be 8001 fb3d
00000150: a5c4 dbbf 902f c13e ea5e 15c0 0691 27c0
00000160: d3cc 3ebf 7c4a 293f 6555 f63f 1dbd d440
00000170: db75 013f d867 4ec0 f7cd ff40 6ca5 b741
00000180: 92d2 043e 3825 2fbe 640b d73e 544c debe
00000190: 0c0d 86be 00b7 8bbc d436 e6be 1078 f23d
000001a0: 0eda 58bf d739 d73e b072 b5bf 91b1 8fc0
000001b0: 446b debf e624 d63e 0f4d 17c0 453d de3e
000001c0: 34b1 45bf 902f abbf 63ce 1abf dbac a8bf
000001d0: 465c 1d3f 1e06 a7bf 5fde 1640 df2b c43f
000001e0: 72ae 3f3e d588 71c0 560f a5c0 0a2a 8fc1
000001f0: 19e9 edbf 9277 58be a697 fcbf b06a 87bd
00000200: 82b0 67be 152a 803d 8b27 3540 fdef 6a40
00000210: 006a 233f a739 7abf fb44 00bf b386 443f
00000220: f449 debe c15a 02c0 4c33 99c0 1e8d 8240
00000230: a115 a83f 10e7 21c0 0483 dec0 a59a d9bf
00000240: 77c1 7ec0 8297 b73f 8e49 7240 bd9a 9d40
00000250: c7aa 123e 6cd5 99be 8ad8 aa3f afdd 4740
00000260: 0d11 3fbf 8926 7bbf 0d27 89bf 2483 85bf
00000270: 3546 ea41 5979 24c2 4168 34c2 d791 d3c2
00000280: 1d98 a3bf 7e5c 70be 98f9 293f 63c7 f43f
00000290: 617b a7bf f734 17bf 41c4 cb40 8832 a23e
000002a0: b1ae e2bf f51b b33d 3d2c b2bf d61e ab3e
000002b0: 6457 aabf e1c4 073f cebe 1fc0 60ab 1bbd
000002c0: e45e e8be 6a52 cd3e c861 dbbd 5429 24be
000002d0: 2d73 8cbf 6939 b43e 0252 c93f 0e3f ab40
000002e0: 9eeb c5be b016 40c0 ec68 0340 70d1 8240
000002f0: 2303 0641 1945 3fc1 721d 7ac1 fd75 e9c1
00000300: f78e 4cbf 9113 0cbf 1915 50bf 42b1 17bf
00000310: e0ed 7fbd 80db 5abc a4f7 7d3e e4a4 673e
00000320: 6f70 62bf e674 a53e 14d1 05c0 5369 ea3e
00000330: 7a4f 9cbf 8c02 103f d890 68bf ce78 a5bf
00000340: 2593 1e3e 81d1 1ebf 87ce 57bf 9e7e 06c0
00000350: e91f d7bd 98e0 85bd 2da5 0b40 8c05 2b40
00000360: e401 c6bf 169c 003f 38ea 1cc0 43e1 35c0
00000370: 9c24 91be 704a 6dbd a095 ccbe bc74 a7be
00000380: 38ca 01be f8e0 01be 00e3 053d ae42 b03e
00000390: 5c2a 6b3f a6fc aabf 6133 75c0 7c69 cdc0
000003a0: 35f0 303e 3efd 543e 5465 4a3c b1f2 6fc0
000003b0: b7f6 17c0 7d7d 97be 00de 46c0 753d 55bd
000003c0: 7e39 a23e 889b f1be b6c0 9a3e 101d 6fbe
000003d0: 528b 1a40 2152 81c0 d106 abc0 100d 30c1
000003e0: 16d9 3abf 8fc2 6a3f db26 f4bf f469 80c0
000003f0: 5499 13c0 2faf b23e 54ab 78bd d1e4 2ebd
1.1030756 -4.1887984 -6.618175 -2.6621635 -0.75036466 0.1479587 -1.6407276 -4.17885
-0.7358637 -0.9471038 -0.62165755 0.6059134 -1.254617 0.32655707 -1.5943393 -7.0550494
2.4734488 -3.9141808 -5.5005703 -9.038952 0.10688395 -0.6195064 1.9034015 2.6133401
-0.17035902 -0.27844656 0.18620294 -0.30314195 -0.20826596 -0.17047864 -0.0983842 -0.24242485
-2.1230059 -0.008012328 -1.6924101 0.3679169 -2.015752 1.0121319 -2.0800004 -2.188296
-0.7528276 1.0136665 -1.1779432 -4.8051744 -0.66412455 -1.1850286 -1.4517032 -0.6048527
-0.31562543 0.38917172 0.23758543 -0.38594854 -0.029061524 -0.048167385 -1.3951814 -2.5056658
0.62351483 -3.6283813 -4.956209 -11.498984 -0.3822962 0.22832173 0.49855316 -0.31586164
-0.28971058 0.15998304 -0.14990312 0.16042286 1.2033962 -1.6144257 -1.6333102 0.23708478
-0.13356638 0.28763384 0.0022011995 0.4310341 -0.39442736 -0.63385147 -4.889024 -8.15824
-0.39931923 0.22173184 -0.19532317 0.122561455 -1.7169386 0.377316 -2.333918 -2.6182265
-0.74531287 0.6612928 1.924481 6.648085 0.5057046 -3.2250881 7.993892 22.955772
0.12970951 -0.17104042 0.42000878 -0.4341761 -0.2618183 -0.017055035 -0.44963706 0.11839306
-0.84707725 0.42036316 -1.4175625 -4.4904256 -1.7376485 0.41825026 -2.3640783 0.4340612
-0.77223516 -1.337389 -0.6047117 -1.3177751 0.61468923 -1.3048742 2.3573225 1.5325888
0.1871889 -3.7739766 -5.158122 -17.895527 -1.8586761 -0.21139362 -1.973378 -0.06612146
-0.22625926 0.062580265 2.8305385 3.6708977 0.6383362 -0.9774422 -0.50105256 0.76768035
-0.43415797 -2.0367892 -4.787512 4.079726 1.3131601 -2.529728 -6.953493 -1.7000319
-3.9805582 1.4343112 3.7857394 4.925139 0.14322959 -0.3004564 1.3347332 3.1229055
-0.7463539 -0.98105675 -1.0715042 -1.0430646 29.28428 -41.118504 -45.10181 -105.78484
-1.2780796 -0.23472783 0.66396475 1.9123348 -1.3084527 -0.5906519 6.367707 0.31679177
-1.7709562 0.08745567 -1.391975 0.33421963 -1.330792 0.5303479 -2.4960208 -0.038005233
-0.45384896 0.4010194 -0.1071201 -0.1603139 -1.0972649 0.3520005 1.5728152 5.351447
-0.38656324 -3.0013847 2.053279 4.088066 8.375766 -11.95437 -15.632189 -29.182611
-0.7990565 -0.54717356 -0.8128219 -0.5925485 -0.062482715 -0.013357997 0.24801499 0.22621495
-0.8845281 0.3231575 -2.090886 0.4578348 -1.2211754 0.56253886 -0.90846014 -1.2927492
0.15485819 -0.6203843 -0.8429951 -2.101478 -0.10504133 -0.065369785 2.1819565 2.6722136
-1.5469327 0.5023817 -2.4517956 -2.841874 -0.28348243 -0.057932317 -0.39957905 -0.3270625
-0.12674797 -0.12683475 0.032687187 0.34425873 0.9186151 -1.3358352 -3.831261 -6.4191265
0.17279132 0.20799729 0.01235326 -3.7491877 -2.3744333 -0.29587927 -3.1072998 -0.052060563
0.31684488 -0.47188973 0.30225152 -0.2335093 2.4147534 -4.0412755 -5.344582 -11.003189
-0.72987497 0.9170312 -1.9074358 -4.0129337 -2.3062334 0.3489928 -0.060710266 -0.042698685

fc1.bias f4 [120]
00000000: c71b 6cbf 7193 27bf 49c8 99bf d639 9cbf
00000010: efa6 6dbd 40b2 c4bf b69b 8bbe ceb2 97be
00000020: 8e24 d6bf da72 ecbf 6f6b 89bf ec4d a7bf
00000030: f243 babe 7e29 15bf 364e c5bf de9b d4be
00000040: f294 afbe 244b 92bf 06cf dfbe 5879 3bbf
00000050: a4ce d6be feec dabf 03fe 21c0 05a8 9fc0
00000060: 38fe 43be f04a 8fbe 2153 9bbf 04b6 02c0
00000070: c9d8 8cbf 640f 9bbf 5b18 edbf 55ca d9bf
00000080: 5ef1 dabf 635a 8abf 4075 55c0 88aa 15bf
00000090: 82f9 4cc0 7d11 cbbf 3917 9bbf cc2b 5040
000000a0: 9367 bdbf c84e 3ec0 4410 f5bf 7c83 a9bf
000000b0: 1649 89be c681 28c0 e68b 3fc0 08e4 1cc0
000000c0: f163 b9bf e878 60be e1b8 06c0 cae6 74bf
000000d0: 3890 5bbe 05c8 c6bf 8b9a ecbf b620 abbe
000000e0: e0e2 bebe 1288 e0bf 99d7 b7bf e72b 15c0
000000f0: 4444 78be 307b 53be 8ef0 abbf 5fa4 e4bf
00000100: e979 9dbf 6496 1fc0 6537 87bf c728 2ebf
00000110: 1ce5 5cbe b792 77bf fe88 00c0 ce8f 9ebf
00000120: b5d4 b9bf a018 cdbf 1543 d2bf b5da 10be
00000130: 04c7 9bbe e20a 09c0 7455 adc0 a05a a1be
00000140: d76a d2be 2cab 7abe 2f71 dabe 1f81 ddbf
00000150: ead1 e7bf a2c1 3bc0 2532 14c0 7160 10c0
00000160: 5c60 cbbf 1e7d 03c0 4c8e 82bf ac6f 0ac0
00000170: 9787 96bf a0d8 02c0 6a0a bebe 08ef 3cbf
00000180: f535 49bf fd5b 01c0 f46e d3be 18c1 e6be
00000190: 0496 1ac0 4ec0 98be 7763 3ec0 5611 d8bd
000001a0: 0ea9 c8bf 80fc 7ebf 70ba b0c0 0235 65bf
000001b0: 315f 09c0 de7b babe 2a90 e1be 4aa2 e2be
000001c0: f5e5 27c0 dbec 88bf 92cf 89be 3ba3 bcbf
000001d0: 5f03 d340 c714 bac0 705c 76bf f609 abbf
-0.92229885 -0.6545935 -1.2014247 -1.220515 -0.05802053 -1.5366898 -0.27267236 -0.29628605
-1.6729906 -1.847255 -1.0735911 -1.3070655 -0.36379963 -0.5826644 -1.5414493 -0.41525167
-0.34293324 -1.1429181 -0.43712634 -0.7323203 -0.4195453 -1.7103574 -2.5311286 -4.98926
-0.19139946 -0.2798686 -1.2134744 -2.0423594 -1.1003658 -1.2114072 -1.8523058 -1.7014872
-1.710491 -1.0808834 -3.3352814 -0.58463335 -3.2027287 -1.5864712 -1.2116462 3.2526731
-1.4797233 -2.9735584 -1.9145589 -1.3243251 -0.26813573 -2.6329207 -2.9929137 -2.451418
-1.4483625 -0.21921122 -2.105034 -0.95664656 -0.21441734 -1.5529791 -1.8484663 -0.33423394
-0.37282467 -1.7541525 -1.436267 -2.3308046 -0.24244791 -0.20652461 -1.3432786 -1.7862662
-1.2302829 -2.493554 -1.056378 -0.6803097 -0.21571773 -0.96708244 -2.0083613 -1.2387636
-1.4518038 -1.602314 -1.6426722 -0.1414593 -0.30425274 -2.1412892 -5.4166813 -0.31514454
-0.41097137 -0.2447936 -0.42664477 -1.730503 -1.8110936 -2.9336934 -2.3155606 -2.2558863
-1.5888782 -2.0545115 -1.0199676 -2.163066 -1.1760129 -2.0444717 -0.3711732 -0.7380223
-0.78597957 -2.0212395 -0.41295588 -0.45069194 -2.4154062 -0.29834217 -2.9748209 -0.105501816
-1.5676591 -0.99604034 -5.5227585 -0.8953401 -2.146435 -0.36422628 -0.440553 -0.44264442
-2.6234105 -1.0697283 -0.26916176 -1.4737314 6.5941615 -5.8150363 -0.962348 -1.3362415

fc2.weight f4 [2, 120]
00000000: 33a8 073f ab7c da3d 659b 813f c40e ccbe
00000010: 0195 bc3d f766 0b3f bc73 e7bc 2430 f7bc
00000020: b883 40bf 4cb9 b33f 6727 01bc 75be 83bf
00000030: 805a e53b bcab 70bb a447 553f 75b9 a4bd
00000040: 5b54 28bd 2ee7 fcbe ac59 d9bc 7727 06be
00000050: 141a 24bd 63ac d43e 81da 793d 08ac b6bf
00000060: c010 b2bd 28b7 8dbc 66ef 1d3e 49e7 4fbe
00000070: eb3d 7a3f d347 1ebf c738 8f3d ce0c 47be
00000080: 2d1e 0fbe 18b0 723f 736c 733f f8ed f6bd
00000090: a558 b43f e7e0 a83d 7b41 74bf 66c0 3840
000000a0: 8eab 7fbf 42d7 463c 2198 3bbf c203 f8be
000000b0: cf05 a1bd 72f2 a8bd 8264 b73e 5cf0 da3d
000000c0: a63a 74bf 88df e03c 1362 1f3d 7905 75bf
000000d0: 34ef da3c e9b6 0a3f e473 85be 4425 873c
000000e0: 12fe 053d 4b72 293f 3bdc 27bb 5dfa 36bf
000000f0: 9cd4 823d 1ed2 1bbe 0318 b13e 5206 6cbf
00000100: 5878 7f3f 7316 a1bf ccc0 07be 1a73 5dbf
00000110: 0809 4ebd c1b2 2abe a610 3ebe dace e73d
00000120: 4de5 68bf b82d 1f3f c678 7c3f e3e2 3c3f
00000130: 108d 04bc 5e36 183f 9fb7 86be 2015 08bb
00000140: c566 d43d 40b2 b43b 4201 af39 51e6 813d
00000150: 0c21 213f f6b1 963f bd16 d43d a5f7 c4be
00000160: f86a d7bd 8437 f0bd a721 c43e 58d4 843e
00000170: fe0e 6f3f e035 50bf 9050 753d 347f 2bbd
00000180: dacf 5abf 6613 9cbe 11b0 91bd d097 173d
00000190: 470a 203e fc7f 273d bedb 013f ad39 19bd
000001a0: 86e8 66bf e8f3 68bc a3f9 b0bf c1f7 d63e
000001b0: a510 eb3e c4a0 a43d 677b 303f 5603 a83d
000001c0: 122f 5fbf 7c7e 8f3e 50f7 a83d ed1d 6bbf
000001d0: 5241 6040 1835 7ebf c44e 87be 8625 7c3f
000001e0: d511 c0be 0f42 0ebe a2a5 70bf facb 013f
000001f0: 43f0 c4bd e3a5 2ebf 903e b03d b4de f13c
00000200: 423b 293f 66dc a6bf aa3f 47bc 57d6 713f
00000210: c525 a0bd 863e 593d 1057 41bf 080b b6bd
00000220: dc28 dfbc c621 023f 0c17 423d 63c6 8c3d
00000230: 80cb 90bd 0736 b6be 1420 84be 664f 5dbc
00000240: 63f4 c6bc 600f 6a3b d7fd 8dbd 769f 893e
00000250: df11 81bf 15e7 f83e 233a 00be 6df8 5a3e
00000260: dea5 333e 171d 83bf 6a74 a0bf f8d3 323c
00000270: 799d 12c0 4287 07be 61ee 6e3f eb2c 39c0
00000280: 70e9 8a3f 92a9 553d 85f5 643f da8d 083f
00000290: 504a 2d3d 923b 8b3d 53c5 1cbf 4aa6 2dbe
000002a0: 201b 743f 8958 acbd cee0 7fbc 6e2f 813f
000002b0: ffd4 85bd d531 15bf 1afe 783e fa16 4fbd
000002c0: c09b 6d3d 3fac 3fbf 0986 d4bd 5e88 583f
000002d0: 9017 533d bd1b 5e3e 31ec 6ebe fb54 683f
000002e0: 9069 72bf 96e9 9d3f abe2 673e 86e2 573f
000002f0: 4cff 923d ad5a 663e c68e 443e 2515 b9bd
00000300: 853b 833f bbe5 1fbf 62e6 65bf 6e72 55bf
00000310: 247e 08bd cad1 31bf 2f0b 01bf 09bf 1dbd
00000320: 79d2 86be e0bc b73d d6d9 003e 58d3 913b
00000330: 287e 23bf db91 9ebf 25b5 4abe 64fe d33e
00000340: 8caa 53bc 606e 123d 7d0d a5be dea6 7cbe
00000350: 73e6 7ebf 4153 3d3f 2aa9 83bd 9f1e 1f3e
00000360: c1a5 563f 9072 a13e d876 673d 63f4 6cbd
00000370: a1e9 f6bd 807e 393c b570 7dbf 7958 38bd
00000380: 9130 833f ad36 8dbc e4a4 dc3e 025e cebe
00000390: c581 0ebf e197 1bbd 0698 2fbf 78e5 d0bc
000003a0: 6f66 353f 3023 83be 01f8 5bbd 7833 7d3f
000003b0: 41e8 68c0 fc33 f13e 6b19 863e 263f 64bf
0.52991027 0.1066831 1.0125548 -0.39855015 0.09208108 0.54453987 -0.028253429 -0.030174322
-0.75200987 1.4040923 -0.007882929 -1.0292498 0.006999314 -0.0036723455 0.8331244 -0.080431856
-0.041096073 -0.49395126 -0.026532017 -0.13100992 -0.040063933 0.4153777 0.060999397 -1.427125
-0.08694601 -0.01729925 0.15423355 -0.20303072 0.9775073 -0.61828345 0.06993251 -0.19438478
-0.13976355 0.9479995 0.95087355 -0.12057108 1.4089552 0.08246022 -0.95412415 2.886743
-0.99871147 0.012136282 -0.73279005 -0.48440367 -0.07862436 -0.08249368 0.3581887 0.10690376
-0.9540199 0.027450338 0.03891189 -0.95711476 0.026725389 0.5418535 -0.2606498 0.016497262
0.032713003 0.6619002 -0.0025613445 -0.71475774 0.06388208 -0.15216872 0.34588632 -0.92197144
0.99793005 -1.2584976 -0.1325714 -0.86503756 -0.05030158 -0.16669752 -0.18561038 0.11318751
-0.90974885 0.62179136 0.98621786 0.737837 -0.008090273 0.5945796 -0.26311967 -0.0020764545
0.10371164 0.005514413 0.00033379538 0.063427575 0.6294105 1.1773059 0.103558995 -0.38470188
-0.105184495 -0.11729339 0.38306925 0.25943255 0.9338225 -0.81332207 0.059891284 -0.041869357
-0.85473406 -0.3048355 -0.0711366 0.037010014 0.1562892 0.04089354 0.50725925 -0.03740852
-0.9019855 -0.014218308 -1.3826183 0.41985896 0.45911136 0.08038476 0.689383 0.08203761
-0.871812 0.28026187 0.08250296 -0.9184254 3.5039868 -0.99299765 -0.2642728 0.98494756
-0.37513605 -0.13892387 -0.94002736 0.5070187 -0.09616139 -0.68221873 0.08605683 0.029525138
0.66106045 -1.303601 -0.012161175 0.9446768 -0.07819704 0.053038143 -0.7552347 -0.08888823
-0.027241163 0.50832784 0.04738526 0.06873777 -0.070700645 -0.35588095 -0.25805724 -0.0135077
-0.024286455 0.003571473 -0.06933182 0.26879472 -1.0083579 0.48613802 -0.12522177 0.2138383
0.17543742 -1.0243253 -1.2535527 0.010914795 -2.2908614 -0.1323519 0.9333249 -2.8933666
1.085249 0.052163668 0.89437133 0.5334145 0.042307198 0.067984715 -0.6123859 -0.16957965
0.9535389 -0.08415324 -0.015617562 1.0092599 -0.065347664 -0.5827916 0.24315682 -0.05055902
0.058009863 -0.748722 -0.10377128 0.8458308 0.051536143 0.21690269 -0.23332287 0.9075467
-0.94692326 1.233691 0.2264506 0.8433002 0.071776 0.22495528 0.19195089 -0.09037236
1.0252539 -0.62459916 -0.8980466 -0.8337773 -0.033323422 -0.6946074 -0.5040769 -0.038512263
-0.26332453 0.08971572 0.12583098 0.004450243 -0.63864374 -1.2388262 -0.19795664 0.41405022
-0.0129190795 0.035749793 -0.32236853 -0.2467303 -0.9957039 0.7395516 -0.0642875 0.15539025
0.8384667 0.31532717 0.056509823 -0.057850253 -0.1205628 0.011321664 -0.990001 -0.04500625
1.0249196 -0.017237986 0.43094552 -0.40306097 -0.5566676 -0.03798664 -0.68591344 -0.025500044
0.70859426 -0.25612783 -0.05370331 0.9890666 -3.6391757 0.47109973 0.26191267 -0.89158857

fc2.bias f4 [2]
00000000: 0ade a2bf ca01 ac3f
-1.2724011 1.3438046
