BC-DQN-DDQN/best_model_CartPole-v0_gpu.pt (torch, 4895 bytes, 4 tensors)

fc1.weight f4 [120, 4]
0	0xbd451cc2	-0.04812313
1	0x3dad8f08	0.08474547
2	0x3e2ec3e2	0.17066911
3	0xbd16ec5b	-0.0368465
4	0xbe4e79d9	-0.20163669
5	0x3ee87c74	0.4540745
6	0xbf1840ea	-0.5947405
7	0xbf1cecec	-0.61299014
8	0xbc8f3744	-0.017482407
9	0xbdc6e25c	-0.097111434
10	0xbdc87ac3	-0.0978904
11	0xbefdfc3d	-0.49606505
12	0xbedfb811	-0.4369512
13	0xbe068c9a	-0.13139573
14	0x3da006e9	0.07813818
15	0xbefab9e4	-0.48969948
16	0xbde188d6	-0.110124275
17	0x3e55e763	0.20889048
18	0xbee44f5d	-0.445918
19	0x3e8f0319	0.2793205
20	0xbeedcfd9	-0.46447638
21	0xbe1ec22a	-0.15503755
22	0xbea2913c	-0.3175143
23	0xbe978625	-0.29594532
24	0xbec6e62a	-0.38847476
25	0xbe5dd327	-0.2166258
26	0xbede93a0	-0.43472004
27	0xbdfb0459	-0.122566886
28	0x3ecd0f12	0.4005056
29	0xbe8ebdfe	-0.27879328
30	0xbc53c65a	-0.012925709
31	0x3f2c919d	0.6740969
32	0x3e1d21b0	0.15344882
33	0xbf2313ee	-0.63702285
34	0x3ec0c123	0.37647352
35	0xbe008726	-0.12551555
36	0x3c0d01e3	0.008606407
37	0x3f260023	0.6484396
38	0xbe89c81c	-0.26910484
39	0x3f30fe90	0.6913843
40	0x3efc0e77	0.49229786
41	0xbdf0451f	-0.11731934
42	0x3d58dc59	0.052944515
43	0x3e939794	0.28826582
44	0x3eaafe7d	0.33397284
45	0x3d35fe98	0.044432253
46	0x3deb981d	0.11503623
47	0x3ca0d699	0.019633578
48	0x3e270619	0.1631092
49	0x3c39e4a2	0.011346014
50	0x3ea5f7ce	0.32415622
51	0xbd8a92b3	-0.06766262
52	0x3e8759d4	0.2643572
53	0x3f079309	0.5295873
54	0x3e89609d	0.26831523
55	0x3f61d23b	0.8821141
56	0x3e7d2244	0.24720103
57	0xbe315234	-0.17316514
58	0x3e9f1f61	0.31078628
59	0xbf17552d	-0.5911434
60	0xbe59aba3	-0.2125688
61	0xbd48619c	-0.048921213
62	0xbe31b182	-0.1735287
63	0xbe01616c	-0.1263482
64	0xbe416ffe	-0.18890378
65	0xbef606ae	-0.4805197
66	0xbe02e638	-0.12783134
67	0xbeb5e3ac	-0.35525262
68	0xbcf56ecd	-0.02996006
69	0xbe242c62	-0.16032556
70	0xbeb589b8	-0.35456634
71	0xbdc0cce0	-0.09414077
72	0x3ed1c2fb	0.4096907
73	0xbe6e4f42	-0.23272422
74	0xbeaad5f9	-0.33366373
75	0x3de5d559	0.112223335
76	0x3e850a50	0.2598443
77	0x3db4ee9c	0.088345736
78	0x3d201714	0.03908451
79	0xbc49f595	-0.012326618
80	0xbeeb6e80	-0.45982742
81	0xbe7d3ce5	-0.2473026
82	0xbe840246	-0.25782984
83	0xbe2aec7f	-0.16691779
84	0x3ebb1ab7	0.3654382
85	0xbd896860	-0.06709361
86	0x3ec89813	0.39178523
87	0x3f362708	0.71153307
88	0x3e693ac0	0.22776318
89	0xbda99728	-0.08280784
90	0xbf036acf	-0.5133485
91	0xbda7c0cc	-0.0819107
92	0xbe0a2923	-0.13492255
93	0x3e9c3891	0.30511907
94	0xbe745e66	-0.23864135
95	0x3d999e36	0.075008795
96	0xbef0a198	-0.46998286
97	0xbf1a8959	-0.60365826
98	0x3e6b357e	0.22969624
99	0xbf64dfbf	-0.8940391
100	0xbde503fa	-0.11182399
101	0xbeec7a76	-0.4618718
102	0x3e01b90d	0.12668248
103	0x3f07f505	0.53108245
104	0x3eb91a2c	0.3615278
105	0x3e4ee7fa	0.2020568
106	0x3e482fe2	0.19549516
107	0x3f116e14	0.5680859
108	0x3eaea90a	0.34113342
109	0xbf0695f9	-0.5257259
110	0xbf67efb3	-0.90600127
111	0xbf807111	-1.0034505
112	0x3d994add	0.07484982
113	0xbd0c470d	-0.034247447
114	0x3e46c7c3	0.1941214
115	0x3e0c6349	0.1370975
116	0x3d9aaa6c	0.07552037
117	0x3d370dea	0.044691004
118	0xbf01da96	-0.5072416
119	0x3d459538	0.04823801
120	0x3eb33a49	0.35005406
121	0xbec3ba29	-0.38227966
122	0x3ede9c07	0.43478414
123	0xbe5594a1	-0.20857479
124	0xbea89154	-0.32923377
125	0x3f4969ca	0.78677046
126	0x3e8b97aa	0.27264148
127	0x3f0e3d3d	0.5556219
128	0x3ea03bbe	0.3129558
129	0xbef3ac4e	-0.47592396
130	0xbed814c9	-0.42203358
131	0xbd473114	-0.04863079
132	0x3beb8351	0.007187285
133	0x3e7d0b57	0.24711357
134	0x3cc9ba00	0.024624825
135	0x3f0b6e88	0.5446553
136	0x3f05f288	0.523232
137	0x3e2ce7b5	0.16885264
138	0x3ef2ed09	0.47446468
139	0xbda1244e	-0.07868253
140	0x3e1e543f	0.15461825
141	0xbe88c590	-0.26713228
142	0xbe25cdb6	-0.16191754
143	0xbe7114c7	-0.23543082
144	0xbedf8865	-0.43658748
145	0xbdbfc89a	-0.093644336
146	0x3dbc4fac	0.09194884
147	0xbda95b75	-0.08269397
148	0xbe9cc755	-0.30620828
149	0xbea02c0f	-0.31283614
150	0x3d0f0694	0.034918383
151	0x3ec7b674	0.39006388
152	0x3d1800af	0.037110027
153	0xbefbe83a	-0.49200612
154	0xbeb9ca48	-0.3628714
155	0xbfa0eec8	-1.257287
156	0x3eb7c6a9	0.35893753
157	0xbe6914b3	-0.22761802
158	0x3e37c4e8	0.17946208
159	0xbeb13158	-0.3460796
160	0xbecfece5	-0.40610424
161	0xbe235381	-0.15949823
162	0x3e9a8fa5	0.30187717
163	0xbdbccfa5	-0.092192926
164	0xbe53e4fc	-0.2069282
165	0xbe90a967	-0.28254244
166	0xbeca83a0	-0.39553547
167	0x3e9b3394	0.30312788
168	0xbd901874	-0.07035914
169	0xbe4f6ae4	-0.2025562
170	0xbe8bcadc	-0.27303207
171	0xbc5bbc1b	-0.013411547
172	0x3efded68	0.4959519
173	0x3d093f8a	0.03350786
174	0x3e9fdab7	0.31221554
175	0x3f2c7077	0.6735911
176	0xbebd8c45	-0.3702108
177	0xbc5bf9b7	-0.013426236
178	0x3e610f98	0.21978605
179	0x3ed2ea4d	0.41194382
180	0x3e4a3c65	0.19749601
181	0x3e0f2ddb	0.13982336
182	0x3ec43f15	0.38329378
183	0x3e08c598	0.13356626
184	0x3e15e541	0.14638235
185	0x3e913eb5	0.28368154
186	0x3e0b4caf	0.13603471
187	0xbd71b853	-0.059013676
188	0x3e1381e3	0.14405017
189	0x3e191fa0	0.1495347
190	0xbd9c90f9	-0.07644839
191	0x3de458b2	0.1114973
192	0xbefc9851	-0.49334958
193	0x3e63994a	0.22226444
194	0x3e984213	0.2973791
195	0x3d370aa5	0.044687886
196	0xbea2c8a6	-0.31793708
197	0x3e97351d	0.2953271
198	0xbecc2f35	-0.39879766
199	0x3e1319da	0.1436533
200	0x3ed4069d	0.41411296
201	0xbeee717a	-0.4657095
202	0x3db7d96a	0.08977015
203	0xbe820d14	-0.25400603
204	0xbea17133	-0.31531677
205	0xbd9f864a	-0.077892855
206	0x3ecc2574	0.39872324
207	0xbce9937d	-0.02851271
208	0x3ebfc1d4	0.37452567
209	0x3edd4d2f	0.4322295
210	0xbe1eb5e4	-0.15499073
211	0x3d8c006c	0.06836018
212	0x3e18ee29	0.14934601
213	0xbee0ffca	-0.43945152
214	0x3da88a75	0.082295336
215	0x3eae7bfc	0.34078968
216	0xbee32399	-0.44363096
217	0x3e908e3f	0.28233525
218	0x3e92e5a7	0.28690836
219	0x3e57eb39	0.21085824
220	0xbe344de8	-0.17607844
221	0xbe2228ea	-0.1583592
222	0x3e40a292	0.18812016
223	0xbe289cb9	-0.16466035
224	0x3e492ee5	0.19646795
225	0x3ebe908e	0.3721966
226	0x3e0cb772	0.13741854
227	0x3ecf58c6	0.40497416
228	0xbcddf18f	-0.027092723
229	0xbe1b4f1c	-0.15166897
230	0x3e14881c	0.14505047
231	0xbf5edce6	-0.87055814
232	0xbd553430	-0.052051723
233	0x3efec177	0.49756977
234	0x3eee67ec	0.4656366
235	0x3f0423ed	0.5161732
236	0x3ed5fbdf	0.41793725
237	0x3e7c0bed	0.24613924
238	0xbc884853	-0.01663605
239	0x3dc264f2	0.0949191
240	0xbe77d8fd	-0.24203868
241	0xbef1c985	-0.4722406
242	0x3f1ac818	0.6046157
243	0x3f002559	0.5005699
244	0xbec2989a	-0.3800705
245	0xbb0d103b	-0.0021524567
246	0xbdb06285	-0.08612541
247	0xbf5d93b9	-0.8655353
248	0x3f15df05	0.58543426
249	0x3f99bcfb	1.2010797
250	0x3f4de816	0.8043226
251	0x3f624817	0.8839125
252	0x3da77bc7	0.081779055
253	0x3d804bca	0.062644556
254	0xbd7db545	-0.06194045
255	0xbe26150c	-0.16218966

fc1.bias f4 [120]
0	0x3e4051ac	0.18781155
1	0xbea82fdb	-0.3284901
2	0x3e2a1fa7	0.16613637
3	0x3e56afa0	0.20965433
4	0x3eba5dcf	0.36399695
5	0x3fc639d6	1.54864
6	0x3ba3039d	0.004974796
7	0x3e7d6946	0.2474719
8	0xbc5eefea	-0.013607005
9	0xbe380471	-0.17970444
10	0xbe31144d	-0.172929
11	0x3e574a56	0.2102445
12	0x3efb146b	0.49039015
13	0xbbe4cee5	-0.0069826716
14	0x3de25724	0.11051777
15	0xbedab472	-0.42715794
16	0x3f3c946d	0.7366398
17	0xbee48181	-0.44630054
18	0x3ee0b4fc	0.4388808
19	0x3e87ee01	0.2654877
20	0x3f81a067	1.0127076
21	0x3e8a64de	0.2703008
22	0x3f536ce1	0.8258801
23	0xbecf1deb	-0.40452513
24	0xbe8dca89	-0.27693585
25	0xbf18390a	-0.59462035
26	0xbe6e8501	-0.23292924
27	0x3e61f974	0.22067815
28	0x3f73b3be	0.9519614
29	0x3f622804	0.8834231
30	0x3e883276	0.26601
31	0xbd35862d	-0.044317413
32	0xbdc6bb40	-0.09703684
33	0x3e4f8268	0.2026459
34	0xbc1f0c24	-0.009707484
35	0x3f8cc8bc	1.0998759
36	0xbe3b9b00	-0.18320847
37	0x3eac0483	0.33597192
38	0xbe8a123e	-0.26967043
39	0x3f3758d6	0.7161993
40	0x3f971bf1	1.1805402
41	0xbeccdb0c	-0.4001087
42	0xbbf98d4b	-0.0076157204
43	0xbe2984f0	-0.16554618
44	0xbe9287ec	-0.28619325
45	0xbef94000	-0.4868164
46	0xbe8269a4	-0.25471222
47	0xbeaeae30	-0.3411727
48	0xbec63c01	-0.38717654
49	0xbe72ec54	-0.23722965
50	0x3f8f7a01	1.1209108
51	0x3f8a3e14	1.0800195
52	0xbc875565	-0.016520211
53	0x3ec808b4	0.3906914
54	0xbeacdbc8	-0.3376143
55	0x3f68659c	0.90780044
56	0xbde74cca	-0.11293943
57	0xbea41a20	-0.32051182
58	0xbc3c2c83	-0.011485222
59	0x3f8be669	1.0929691
60	0x3b5edcd1	0.0034006129
61	0x3e2a6774	0.16641027
62	0xbdf610c3	-0.12014916
63	0x3f93b91a	1.1540864
64	0x3e3c3698	0.18380201
65	0xbe163b84	-0.14671141
66	0xbe36c80b	-0.17849748
67	0xbe56f1f6	-0.20990738
68	0x3fcfac21	1.6224405
69	0xbd97796a	-0.07396205
70	0x3f12432a	0.57133734
71	0x3f9736f0	1.181364
72	0x3f8fb80c	1.1228042
73	0xbe30a46b	-0.1725022
74	0xbec14313	-0.37746486
75	0x3d836167	0.064150624
76	0x3ea2b77e	0.31780618
77	0x3fd49c0f	1.6610125
78	0x3f45de36	0.7729219
79	0x3f8a341d	1.0797154
80	0x3e52731a	0.2055172
81	0x3f859477	1.0435933
82	0xbea7bf3b	-0.32763085
83	0xbe71183b	-0.235444
84	0xbeec3c16	-0.46139592
85	0x3f691bb2	0.91057885
86	0x3fba4aea	1.4554112
87	0xbead3d01	-0.33835605
88	0x3ebb1378	0.3653829
89	0x3f09b9d5	0.5379918
90	0xbcb8774e	-0.022517826
91	0x3ed5f0b9	0.4178522
92	0x39eb8278	0.000449199
93	0x3d17d87f	0.0370717
94	0x3fd11544	1.6334615
95	0x3fb69ba6	1.426625
96	0x3f5792b6	0.8420824
97	0x3f9529d0	1.1653385
98	0x3e1f254a	0.15541568
99	0xbe59a863	-0.2125564
100	0x3f873a32	1.0564635
101	0x3f6d3fa6	0.92675245
102	0x3e53ef93	0.20696859
103	0xbeb6c457	-0.3569667
104	0xbdebacbf	-0.11507558
105	0x3d22ab93	0.039714407
106	0xbd914f13	-0.0709516
107	0xbe2b99c1	-0.16757871
108	0x3efa4fae	0.48888916
109	0x3d80448a	0.06263073
110	0xbec04fde	-0.37560934
111	0x3f731e08	0.949677
112	0xbccd0a74	-0.025029399
113	0xbed194fb	-0.40933976
114	0xbe3595ed	-0.17732973
115	0x3e21efb0	0.1581409
116	0x3eaffc3b	0.34372124
117	0xbd3a9a7b	-0.04555748
118	0xbe6b2411	-0.22962977
119	0x3efb8187	0.4912226

fc2.weight f4 [2, 120]
0	0x3e1ef0fd	0.15521617
1	0xbee0cbc3	-0.43905458
2	0x3da67f4f	0.08129751
3	0x3de5b3fb	0.11215969
4	0x3df16c99	0.117882915
5	0x3f91fa8b	1.1404585
6	0xbe2ec943	-0.17068963
7	0xbeb9fb9b	-0.36324772
8	0xbeadbbee	-0.3393244
9	0xbebdb843	-0.37054643
10	0xbd579796	-0.052634798
11	0x3d847d2e	0.06469189
12	0x3ea606a6	0.32426947
13	0xbf3e5fe6	-0.7436508
14	0xbca21e07	-0.019789709
15	0xbd24ff04	-0.040282264
16	0x3f0b3b79	0.54387623
17	0x3d72cd4a	0.05927781
18	0x3e43e981	0.19132043
19	0x3de464f2	0.11152066
20	0x3f3fd72e	0.74937713
21	0xbf080e4f	-0.53146833
22	0x3f1cfc28	0.6132226
23	0x3c1a5def	0.00942181
24	0xbf4a81fa	-0.7910458
25	0xbe9b1ddc	-0.30296218
26	0xbe7be051	-0.24597289
27	0xbf1b533d	-0.60673887
28	0x3ee2011b	0.44141468
29	0x3f1fe754	0.62462354
30	0x3de0a150	0.10968268
31	0xbf0ebd8a	-0.55757964
32	0xbe3d479c	-0.18484348
33	0xbedb8404	-0.42874157
34	0xbe80003e	-0.25000185
35	0x3f33bbe8	0.702086
36	0xba0dfd8f	-0.00054165063
37	0xbec2cf23	-0.38048658
38	0xbf7f7aa6	-0.9979652
39	0x3f04bf39	0.5185428
40	0x3f456bf6	0.7711786
41	0xbdeae101	-0.11468697
42	0xbe08cf25	-0.1336027
43	0xbec0ff64	-0.37694848
44	0xbdd25d2d	-0.10271678
45	0x3d96e6d4	0.07368246
46	0xbd93f716	-0.07224862
47	0x3c862027	0.016372753
48	0x3cb7e2c2	0.022446994
49	0x3daae959	0.08345289
50	0x3f529e51	0.8227282
51	0x3f1f802e	0.6230496
52	0xbe7747ad	-0.24148436
53	0xbe747238	-0.23871696
54	0xbd971d83	-0.07378676
55	0x3f1a74f5	0.6033471
56	0xbe912d3e	-0.2835483
57	0xbf0a5759	-0.5403953
58	0xbf0b5133	-0.54420775
59	0x3f36b2a4	0.71366334
60	0xbeff067f	-0.49809644
61	0xbe170fc1	-0.14752103
62	0xbf872e53	-1.0561012
63	0x3f439942	0.7640573
64	0xbe83982e	-0.2570204
65	0xbfa8b8c5	-1.3181387
66	0xbd8c2252	-0.068424836
67	0xbde62535	-0.112375654
68	0x3f868c15	1.05115
69	0xbf3d8233	-0.74026793
70	0x3ebf6ad9	0.37386206
71	0x3f3af20b	0.7302558
72	0x3f432fdf	0.7624492
73	0xbf07e3ff	-0.5308227
74	0xbe9e1cc4	-0.3088132
75	0xbd3d6aa1	-0.046244267
76	0xbf36e324	-0.7144034
77	0x3f8bce45	1.0922323
78	0x3ed99026	0.4249279
79	0x3f3e975f	0.74449724
80	0xbf20ebd0	-0.6285982
81	0x3f4aed28	0.7926812
82	0x3da05ef7	0.07830613
83	0xbf8f40a0	-1.1191597
84	0xbe21c5e3	-0.15798144
85	0x3f37063d	0.71493894
86	0x3f76c464	0.9639342
87	0xbe49de0b	-0.19713609
88	0x3e24094f	0.16019176
89	0x3dfa857c	0.122324914
90	0xbeaef717	-0.3417289
91	0x3e5448eb	0.20730941
92	0xbf291c35	-0.66058666
93	0xbea484e8	-0.3213265
94	0x3f996424	1.1983685
95	0x3f68f874	0.9100411
96	0x3f0eff81	0.5585862
97	0x3f5c3117	0.86012405
98	0xbfa4e74d	-1.2883087
99	0x3c6c0524	0.0144055225
100	0x3f1dcedb	0.6164376
101	0x3f1de1df	0.61672777
102	0xbf3d3676	-0.73911226
103	0xbef17e98	-0.47166896
104	0xbe56cb44	-0.20975977
105	0xbd90df09	-0.070737906
106	0xbe717662	-0.23580316
107	0xbe4267a6	-0.18984851
108	0x3eb306f6	0.34966248
109	0xbe8c0c06	-0.27352923
110	0xbeaa39df	-0.33247277
111	0x3efc2358	0.49245715
112	0xbe4701b8	-0.1943425
113	0xbeb77bc1	-0.35836604
114	0xbd1ad139	-0.037797187
115	0xbe5ef00d	-0.2177126
116	0x3df797e6	0.12089519
117	0xbee50148	-0.4472754
118	0xbee5e897	-0.44904014
119	0x3e344f35	0.1760834
120	0xbd0ff0f1	-0.03514189
121	0xbf157358	-0.58379126
122	0xbeaa8b09	-0.333092
123	0xbec1bfcb	-0.3784164
124	0x3de95939	0.11393971
125	0x3f77d74f	0.9681291
126	0xbe4a18a9	-0.1973597
127	0xbd5532b0	-0.052050292
128	0xbe47d4f2	-0.19514826
129	0xbf1997a5	-0.59997016
130	0xbe87fdbf	-0.2656078
131	0x3dcb943c	0.09940383
132	0x3ea92fe6	0.33044356
133	0xbf1b1374	-0.6057656
134	0xbead3c21	-0.33834937
135	0x3d60649c	0.05478345
136	0x3ec11bb8	0.3771646
137	0xbcdc65c2	-0.02690399
138	0x3e7c5566	0.24641952
139	0x3e44d18b	0.1922056
140	0x3f3014f0	0.6878195
141	0xbded0814	-0.115738064
142	0x3f09ba2b	0.53799695
143	0x3dabefc3	0.0839534
144	0xbeb93298	-0.36171412
145	0xbedd5917	-0.43232033
146	0xbebd26f1	-0.36943772
147	0xbf915028	-1.1352587
148	0x3f0edf4b	0.5580947
149	0x3f0a7c0e	0.5409554
150	0x3e9326a5	0.2874042
151	0xbf1b8d7b	-0.6076276
152	0xbe480cdf	-0.1953616
153	0x3c0e3bf9	0.008681291
154	0xbe3b21b1	-0.18274571
155	0x3f580c52	0.843938
156	0xbcb3dfc5	-0.021957288
157	0x3e1da423	0.15394644
158	0xbf5409a3	-0.82827204
159	0x3edba406	0.42898577
160	0x3f3f2059	0.74658734
161	0xbe8b31dc	-0.27186477
162	0xbd951a89	-0.07280452
163	0xbf08ac77	-0.5338816
164	0xbec18e41	-0.37803844
165	0x3c80e3a6	0.015733551
166	0xbdb1ed1c	-0.08687803
167	0x3c969e1c	0.01838594
168	0xbda49d43	-0.08037808
169	0xbd9e31f3	-0.07724371
170	0x3f48daf5	0.784591
171	0x3f3cc4e0	0.7373791
172	0xbe8ffeb0	-0.28124
173	0x3e7e4a50	0.24833035
174	0xbcefaeac	-0.029258095
175	0x3f168f72	0.5881263
176	0xbedd53d3	-0.43228015
177	0xbecab0bf	-0.39587972
178	0xbf06251e	-0.52400386
179	0x3f2d7f53	0.67772406
180	0xbea246dc	-0.31694686
181	0xbf31fbad	-0.6952465
182	0xbf8d4901	-1.1037904
183	0x3f43eef2	0.76536477
184	0xbcd94a51	-0.026524695
185	0xbf8c3677	-1.0954121
186	0xbd82eeed	-0.06393228
187	0xbe5e519d	-0.2171082
188	0x3f853f90	1.0410023
189	0xbf4a936b	-0.7913119
190	0x3ea7c5e5	0.3276817
191	0x3f429ee5	0.76023704
192	0x3f40ea19	0.75357205
193	0xbe325743	-0.174161
194	0xbecc6c94	-0.3992659
195	0xbe64dd92	-0.22350147
196	0xbde196f5	-0.11015121
197	0x3f8340bb	1.0254129
198	0x3eb20cb9	0.34775332
199	0x3f31557d	0.6927107
200	0xbf902a90	-1.1262989
201	0x3f14feab	0.5820109
202	0x3da6d8a6	0.08146791
203	0xbf6310e9	-0.8869768
204	0xbdf8f600	-0.12156296
205	0x3f0d18a8	0.5511575
206	0x3f76740d	0.9627083
207	0xbe99eab2	-0.3006187
208	0x3e53e515	0.20692857
209	0x3e3a098f	0.18167709
210	0xbeafb10a	-0.34314758
211	0x3e9bd570	0.30436277
212	0xbeb0000c	-0.34375036
213	0xbee4298c	-0.44562948
214	0x3f859e08	1.0438852
215	0x3f82922d	1.0200859
216	0x3f30ad0a	0.69014037
217	0x3f5062ab	0.81400555
218	0xbfda5397	-1.705676
219	0xbe148e58	-0.14507425
220	0x3f376fcb	0.7165496
221	0x3f327a43	0.69717807
222	0xbe9e4d20	-0.30918217
223	0xbf0d6c01	-0.55242926
224	0xbd6260b0	-0.05526799
225	0xbe9a053b	-0.30082116
226	0xbdfa17bd	-0.12211559
227	0xbed4aa15	-0.41536012
228	0x3ead2794	0.33819258
229	0xbedfd02d	-0.43713513
230	0xbf335526	-0.700518
231	0x3f1bdbcc	0.6088226
232	0xbe97574c	-0.2955879
233	0xbec790ae	-0.3897757
234	0x3c5084cc	0.012726974
235	0xbe246e5c	-0.16057724
236	0xbddf2b7b	-0.10896965
237	0xbef2f316	-0.47451085
238	0xbf5a4b78	-0.85271406
239	0x3e35f1d3	0.1776803

fc2.bias f4 [2]
0	0x3f768b6f	0.9630651
1	0x3fae6f96	1.3627803
