BC-DQN-DDQN/best_model_CartPole-v1.pt (torch, 4831 bytes, 4 tensors)

fc1.weight f4 [120, 4]
0	0xbe36f5c1	-0.17867185
1	0xbf34a73c	-0.7056768
2	0x3e91ca90	0.28474855
3	0xbe4b068d	-0.19826718
4	0xbe497e4f	-0.19677089
5	0x3ecdb291	0.40175298
6	0x3e8e0c26	0.27743644
7	0x3eecf357	0.46279404
8	0x3d7ea53e	0.062169306
9	0x3e9601de	0.292983
10	0x3dea5b86	0.11443238
11	0xbe670e14	-0.22563964
12	0xbe8cea1c	-0.2752236
13	0xbec507c5	-0.3848249
14	0xbedc9827	-0.43084833
15	0xbf7eb928	-0.99501276
16	0x3d42095e	0.047372214
17	0x3eb94c80	0.36191177
18	0x3e84232c	0.25808084
19	0x3fa78517	1.3087491
20	0x3f11268e	0.56699455
21	0xbef2f116	-0.4744956
22	0x3b762664	0.0037559504
23	0xbf676e33	-0.90402526
24	0xbee85dd5	-0.45384088
25	0xbec2114a	-0.37903816
26	0xbe801cd0	-0.25021982
27	0xbf8f5473	-1.1197647
28	0x3ec6cc4d	0.38827744
29	0x3f490262	0.7851926
30	0x3f8bdb81	1.0926362
31	0x3fcefb2a	1.6170399
32	0x3f070d6f	0.52754873
33	0xbf1cd8c5	-0.61268264
34	0xbf0be847	-0.546513
35	0xbf257db8	-0.64644957
36	0x3c2c219e	0.010506062
37	0xbe6a438f	-0.22877334
38	0xbbd81f54	-0.0065955315
39	0xbdbb3032	-0.09140052
40	0x3e4f0c70	0.20219588
41	0xbe414b22	-0.18876317
42	0xbefffa68	-0.49995732
43	0xbf84ff41	-1.0390397
44	0xbe5d43ac	-0.21607846
45	0x3e68ca38	0.2273339
46	0xbe69888c	-0.22805995
47	0x3e732b7c	0.23747057
48	0xbdef83e8	-0.11695081
49	0x3ed01112	0.40638024
50	0xbe71c2ff	-0.23609541
51	0x3ecb8fb1	0.39758065
52	0xbec6f161	-0.38856032
53	0x3f06f138	0.5271182
54	0x3f52b878	0.82312727
55	0x3f96063f	1.1720656
56	0xbee85dcb	-0.45384058
57	0x3efd23ed	0.49441472
58	0xbf091622	-0.53549397
59	0x3ebc9154	0.36829627
60	0xbeb63b4e	-0.3559212
61	0xbe4cd517	-0.20003162
62	0x3d97e990	0.074175954
63	0xbdd7cdef	-0.105373256
64	0x3ea77bd6	0.32711667
65	0x3f2ccac1	0.6749688
66	0x3e110b2c	0.14164418
67	0x3f88ab51	1.0677282
68	0x3e0bb9ea	0.1364514
69	0x3f945f19	1.1591522
70	0x3f46543c	0.7747228
71	0x3fa4f5cb	1.288751
72	0xbe8fd59f	-0.28092667
73	0x3f07e7b1	0.5308791
74	0x3e43ee35	0.19133838
75	0x3e812bf1	0.25228837
76	0x3e558f78	0.2085551
77	0xbe8d6567	-0.27616426
78	0x3bc53431	0.0060181846
79	0xbe31bc02	-0.17356876
80	0x3ea7636c	0.3269304
81	0x3e645fb2	0.2230213
82	0xbf50df8d	-0.8159111
83	0xbf357ffa	-0.708984
84	0xbe3008ac	-0.17190808
85	0xbe5b3e8b	-0.21410577
86	0xbea71faf	-0.3264136
87	0xbc90aa96	-0.017659467
88	0xbe11f157	-0.1425222
89	0xbe029aea	-0.12754408
90	0xbe870eb4	-0.26378405
91	0xbda04509	-0.078256674
92	0x3ddb46f9	0.10706896
93	0xbea7e765	-0.32793728
94	0x3e913505	0.28360763
95	0xbe29cd7c	-0.16582292
96	0x3f096306	0.5366672
97	0x3d1e490b	0.038643878
98	0x3e830319	0.255883
99	0xbe18e7ba	-0.14932147
100	0x3ee7725d	0.4520444
101	0x3e6e40ea	0.2326695
102	0x3eb71e8c	0.35765493
103	0xbc996937	-0.018726928
104	0xbe9668bb	-0.29376778
105	0xbe826bdf	-0.25472924
106	0xbdb41350	-0.08792746
107	0xbf370869	-0.7149721
108	0x3ed1fea5	0.4101459
109	0xbeab1d17	-0.3342063
110	0xbeb53096	-0.3538863
111	0x3e0ed3ac	0.13947934
112	0xbea3a1e3	-0.31959447
113	0xbe07beca	-0.13256374
114	0x3e74e33a	0.23914805
115	0xbdb64cea	-0.08901389
116	0x3e655f2b	0.22399585
117	0xbe026ee2	-0.12737611
118	0x3ea2a300	0.31764984
119	0xbd72f625	-0.059316773
120	0x3e340496	0.17579874
121	0x3e4e3d6d	0.2014062
122	0xbeb069e1	-0.3445578
123	0x3d2edbbd	0.042690028
124	0x3eed91e1	0.4640036
125	0xbe0669a1	-0.13126232
126	0xbea7db79	-0.32784632
127	0x3f18bbdc	0.5966165
128	0xbd9bc4ad	-0.07605872
129	0xbefcb092	-0.49353462
130	0xbef6cceb	-0.48203215
131	0xbf370bf1	-0.71502596
132	0x3c869d0c	0.016432308
133	0x3e00ee4f	0.12590908
134	0x3f805f47	1.0029076
135	0x3fb04b15	1.3772913
136	0xbe55aba0	-0.20866251
137	0xbe83d93e	-0.2575168
138	0x3ecfe46d	0.40603963
139	0x3dd3c4ff	0.103403084
140	0xbd9333fe	-0.07187651
141	0xbe9b84ac	-0.30374658
142	0xbeeda865	-0.46417537
143	0x3e463926	0.19357738
144	0xbdaf447c	-0.08557984
145	0xbd85e72f	-0.065382354
146	0xbef4035a	-0.47658807
147	0xbdc34ab1	-0.09535731
148	0x3efc8888	0.49322915
149	0xbd045043	-0.032303106
150	0xbe2f3fd6	-0.17114195
151	0x3e7987c5	0.24368198
152	0x3edd685b	0.4324368
153	0xbe89cd61	-0.26914504
154	0x3ea6537e	0.32485574
155	0xbe5c4e54	-0.21514255
156	0x3de658b6	0.11247389
157	0x3e88e1fa	0.26734906
158	0xbf06150b	-0.5237586
159	0xbf2d4749	-0.676869
160	0x3e9d44f2	0.30716664
161	0x3dc4a416	0.096016094
162	0x3f24ebcb	0.6442229
163	0x3f14e682	0.58164227
164	0xbe54c95e	-0.2077994
165	0x3e108840	0.14114475
166	0x3e80a7b3	0.25127944
167	0x3f92d2a2	1.147053
168	0x3ece59d7	0.40302917
169	0xbe8a1646	-0.26970118
170	0x3e35500e	0.1770632
171	0xbe293384	-0.16523558
172	0xbeb8c5d4	-0.3608843
173	0xbeca608e	-0.3952679
174	0xbecbddaa	-0.39817554
175	0xbe94dd8a	-0.2907527
176	0xbe157a36	-0.14597401
177	0xbee6b7de	-0.45062155
178	0x3df36bfe	0.11885832
179	0x3e78809b	0.24267809
180	0x3d476f2b	0.048690002
181	0x3db4dcf3	0.08831205
182	0x3e80ab84	0.25130856
183	0x3d0036fd	0.03130244
184	0x3c9da69e	0.019244488
185	0x3ebad1be	0.36488146
186	0x3db318bd	0.08744953
187	0x3e26f9d8	0.16306245
188	0xbf389367	-0.7209992
189	0x3f61163a	0.8792454
190	0x3f9c2291	1.2198049
191	0x3fb008a9	1.3752643
192	0xbd81c3c7	-0.0633617
193	0xbe7eaccb	-0.24870603
194	0xbe56d3a4	-0.20979172
195	0x3e5ac0b6	0.21362576
196	0x3e610188	0.2197324
197	0x3e103108	0.14081204
198	0xbddf3687	-0.10899072
199	0x3e2328fd	0.15933605
200	0xbcbf33f0	-0.023340195
201	0x3e199725	0.14999063
202	0xbefa595d	-0.48896304
203	0x3e1eaf6c	0.15496606
204	0x3e6a0b79	0.22855939
205	0x3d92c8cb	0.071672045
206	0xbd3538b6	-0.044243537
207	0x3e12e914	0.14346725
208	0x3d5cf251	0.05394203
209	0x3e702bab	0.23454158
210	0xbefe012a	-0.49610263
211	0x3e9f59b7	0.31123134
212	0xbe8130a5	-0.25232425
213	0xbd9fad14	-0.07796684
214	0x3e6e2ab7	0.23258482
215	0x3db3355f	0.08750414
216	0xbe3f921e	-0.18708083
217	0x3ecf2c2d	0.4046339
218	0x3e4bfe67	0.19921266
219	0x3e6a8c33	0.22905044
220	0x3e55a3d0	0.20863271
221	0xbeb6cb06	-0.3570177
222	0x3ea55b32	0.3229614
223	0xbd5c339c	-0.053760156
224	0x3dbe52a4	0.09293106
225	0xbeeafd8e	-0.45896572
226	0xbebc1f08	-0.36742425
227	0xbea14d95	-0.31504503
228	0x3e52a75f	0.2057166
229	0x3eebfcfb	0.46091446
230	0x3ed54956	0.41657513
231	0xbdc70526	-0.09717779
232	0x3ed6a701	0.4192429
233	0xbea07bf3	-0.31344566
234	0x3e0da423	0.13832144
235	0xbe5678a7	-0.20944463
236	0xbe565b9c	-0.20933384
237	0x3bd86eb8	0.0066049956
238	0x3e7a9e1a	0.24474373
239	0xbd09acf8	-0.03361222
240	0x3ec568be	0.38556474
241	0x3ee97b2d	0.45601788
242	0x3c88ff82	0.016723398
243	0x3d86f447	0.06589561
244	0x3eaee316	0.34157628
245	0xbe047aa1	-0.12937404
246	0x3d7238ee	0.059136324
247	0xbef83387	-0.48476812
248	0x3e6d7b0c	0.2319147
249	0xbf19ebdc	-0.6012552
250	0xbf6fe9c2	-0.9371606
251	0xbf7d31f7	-0.98904365
252	0xbe815393	-0.25259075
253	0x3e91371a	0.28362352
254	0x3f1a0113	0.6015789
255	0x3f4213e3	0.75811595

fc1.bias f4 [120]
0	0xbd20b6b3	-0.039236736
1	0xbe4c3d3d	-0.19945236
2	0xbefbdbde	-0.49191183
3	0x3e2ba350	0.16761518
4	0x3dce63be	0.10077618
5	0xbe92ec97	-0.2869613
6	0xbf03e5ec	-0.5152271
7	0x3e1fee02	0.15618137
8	0xbdc6ce1c	-0.09707281
9	0x3f1897cd	0.5960663
10	0x3d5b1ab0	0.053492248
11	0xbeb69fbc	-0.35668743
12	0xbebe2b05	-0.37142196
13	0xbed0f78f	-0.40813872
14	0x3fa3c42e	1.2794244
15	0x3e623bb2	0.22093084
16	0xbece3762	-0.4027663
17	0xbe26664c	-0.1624996
18	0xbdba2c7e	-0.090905175
19	0x3fba5979	1.4558555
20	0xbefb161c	-0.49040306
21	0xbea1cb86	-0.3160059
22	0x3f921711	1.1413289
23	0x3e848ab4	0.25887072
24	0xbb418faf	-0.0029535105
25	0xbef88a37	-0.4854295
26	0xbea9ad66	-0.33140105
27	0x3f71748a	0.9431845
28	0xbdffe760	-0.12495303
29	0x3eef6ff8	0.46765113
30	0xbebe7a59	-0.3720272
31	0xbe4efd64	-0.20213848
32	0xbead2c2e	-0.3382277
33	0xbe89ccb6	-0.26913995
34	0x3f836b0a	1.0267041
35	0x3f04ca56	0.5187124
36	0xbe901609	-0.2814181
37	0x3fbae6ed	1.4601723
38	0xbe419652	-0.18904999
39	0x3f09c6f9	0.53819233
40	0x3eaa73de	0.33291525
41	0xbec44039	-0.38330248
42	0xbe903f69	-0.28173378
43	0xbe424885	-0.18972977
44	0xbe995fb7	-0.29955837
45	0x3fa2cfa7	1.271962
46	0x3f60ff0a	0.8788916
47	0x3d9b8657	0.07593983
48	0x3fc232cd	1.5171753
49	0xbeebef99	-0.46081236
50	0x3ec6fd1b	0.3886498
51	0xbe6f0580	-0.23341942
52	0x3fd696b4	1.6764741
53	0xbede7a9f	-0.43452927
54	0xbe8840c7	-0.2661192
55	0x3f1a635b	0.60307854
56	0xbec0e5dd	-0.37675372
57	0x3d930a5e	0.07179712
58	0xbe302fe7	-0.17205773
59	0xbec64b7a	-0.3872946
60	0xbd3a7100	-0.04551792
61	0xbe6f097d	-0.23343463
62	0xbecbc2f8	-0.39797187
63	0x3eb8f802	0.36126715
64	0x3f81f42b	1.0152639
65	0x3fa5e948	1.2961817
66	0x3df148a9	0.11781437
67	0x3f1acb68	0.60466623
68	0xbeb01d2f	-0.34397265
69	0xbecc5625	-0.39909473
70	0x3ee3a611	0.44462636
71	0x3e99918e	0.29993862
72	0xbefd3e99	-0.4946182
73	0x3f325ed9	0.69675976
74	0x3f9c5cef	1.2215861
75	0x3ed0f840	0.408144
76	0x3fc867d2	1.5656683
77	0xbf0da65c	-0.5533197
78	0x3f96317f	1.1733855
79	0x3e9b2284	0.3029977
80	0xbdc259f9	-0.09489817
81	0xbd3df6e3	-0.046378028
82	0xbe037cb4	-0.12840539
83	0xbe58073f	-0.21096514
84	0x3fb90b4d	1.4456574
85	0xbf369337	-0.7131838
86	0xbe9f755e	-0.31144232
87	0x3faa6af7	1.3313893
88	0xbefeb212	-0.49745232
89	0x3e621796	0.2207931
90	0x3f02bd04	0.51069665
91	0xbd18916b	-0.037248056
92	0xbe9838c1	-0.297308
93	0xbe8363f7	-0.25662205
94	0xbe98d996	-0.29853505
95	0x3e6dceb4	0.23223382
96	0xbebf43c4	-0.3735639
97	0xbedc8935	-0.4307343
98	0x3e75a900	0.2399025
99	0x3f596e15	0.84933597
100	0x3f34e31e	0.70659053
101	0x3f9c887d	1.2229153
102	0x3f97882e	1.1838434
103	0x3fbae644	1.4601521
104	0xbe711a65	-0.23545225
105	0x3f5f768f	0.8729028
106	0x3f808bbb	1.0042642
107	0x3fa4abbc	1.2864909
108	0x3e10c65e	0.14138171
109	0x3f8f8f37	1.1215581
110	0x3ea10a8d	0.31453362
111	0x3f003b75	0.50090724
112	0x3f8ea2c8	1.1143427
113	0x3f98986d	1.1921517
114	0xbe3d89a5	-0.18509538
115	0x3f0b88cb	0.54505605
116	0x3f858d20	1.0433693
117	0xbef36c6c	-0.47543657
118	0xbeaf549c	-0.3424424
119	0x3f900efa	1.125457

fc2.weight f4 [2, 120]
0	0xbeaa6920	-0.3328333
1	0xbd0ac149	-0.033875737
2	0xbdfa5c49	-0.12224633
3	0xbe245ae9	-0.16050304
4	0xbf85373e	-1.0407484
5	0xbf4bf5c6	-0.79671896
6	0xbf7b718a	-0.9822012
7	0xbfca669d	-1.5812565
8	0xbf1ae9ad	-0.6051281
9	0x3ee9d28f	0.45668456
10	0xbe9b1e2f	-0.30296466
11	0xbd947cc7	-0.07250362
12	0xbda94307	-0.082647376
13	0xbf4fdf6b	-0.81200284
14	0x3f4902fb	0.7852017
15	0x3c9f0e27	0.019415928
16	0xbf0c9288	-0.5491109
17	0xbfa46561	-1.2843438
18	0xbe3ae207	-0.18250285
19	0x3f855087	1.04152
20	0xbf53c985	-0.8272937
21	0x3c295f07	0.010337598
22	0x3f4a6e3c	0.79074454
23	0x3e516c68	0.2045151
24	0xbe182709	-0.1485864
25	0xbd660733	-0.05615921
26	0xbf0b7d5b	-0.5448815
27	0x3f11cc80	0.5695267
28	0xbace9645	-0.0015761337
29	0x3e605a36	0.21909413
30	0x3ca831f3	0.02053163
31	0xbe6fc30d	-0.2341425
32	0xbf4c3692	-0.7977077
33	0xbf84b7de	-1.0368612
34	0x3f0a4b0a	0.5402075
35	0x3e397269	0.1811005
36	0xbd0c866c	-0.034307882
37	0x3f655195	0.8957761
38	0x3c240760	0.010011524
39	0x3dc4e086	0.09613137
40	0xbf3aee6f	-0.7302007
41	0xbf07ee03	-0.5309755
42	0x3da3d0af	0.079987876
43	0xbe6496a9	-0.22323097
44	0xbe804bb0	-0.25057745
45	0x3f3ffaf7	0.74992317
46	0x3ef1f00b	0.4725345
47	0xbfc4b494	-1.5367608
48	0x3f80aeda	1.005336
49	0xbd7b8cd6	-0.06141361
50	0x3e87f4f5	0.26554075
51	0x3d0438ce	0.032280736
52	0x3f921204	1.1411748
53	0x3d1d6bc4	0.03843285
54	0xbdaed3a4	-0.08536461
55	0x3ecba914	0.39777434
56	0xbdbb75f5	-0.09153358
57	0xbddd3d47	-0.10802703
58	0x3cdccb1b	0.026952317
59	0x3d9d1df7	0.07671731
60	0xbe9e256e	-0.30887932
61	0xbeef4c2e	-0.46737808
62	0xbf8a6630	-1.0812435
63	0xbf606dad	-0.8766735
64	0x3f38a102	0.7212068
65	0x3f56ed68	0.83956003
66	0xbe45107b	-0.19244568
67	0x3e987548	0.29776978
68	0xbdaf448e	-0.08557998
69	0xbee6c1bc	-0.45069683
70	0xbf6761ec	-0.9038379
71	0x3e144943	0.14481072
72	0xbecbdcca	-0.39816886
73	0x3ebf777e	0.37395853
74	0x3f716654	0.94296765
75	0x3e92540f	0.28579757
76	0x3f858cf9	1.0433646
77	0xbf82bdbf	-1.0214156
78	0x3f3ffc28	0.74994135
79	0x3d48e922	0.049050458
80	0xbef898dc	-0.48554122
81	0xbe3d91f3	-0.18512706
82	0x3c1101e2	0.008850547
83	0x3ab00253	0.0013428427
84	0x3f59101c	0.84790206
85	0xbf072bd3	-0.52801245
86	0xbf509cbf	-0.81489176
87	0x3f6cdadd	0.9252146
88	0x3da01fe8	0.07818586
89	0xbcac5f94	-0.021041669
90	0x3e9e972e	0.30974716
91	0xbe1fe351	-0.15614058
92	0xbe311180	-0.17291832
93	0x3c92eac7	0.017934216
94	0xbf1adf7d	-0.60497266
95	0xbf3b541d	-0.7317522
96	0xbeea7676	-0.45793504
97	0xbeb602e6	-0.35549086
98	0xbe00aa92	-0.12565067
99	0x3ee18ba8	0.44051862
100	0x3efd906e	0.49524254
101	0x3f488a64	0.7833617
102	0x3f309a97	0.68985885
103	0x3f843f02	1.0331728
104	0xbe7c1ea1	-0.24621059
105	0x3f2762bf	0.6538505
106	0x3f43edd7	0.7653479
107	0x3f619fb8	0.88134336
108	0x3d7b3352	0.06132824
109	0x3f0d9169	0.55300003
110	0xbf87eb3e	-1.0618665
111	0x3e98c672	0.29838902
112	0x3f2e069b	0.6797883
113	0x3f74d1be	0.9563254
114	0xbcf09796	-0.029369157
115	0x3e701061	0.23443748
116	0x3f1038bc	0.5633657
117	0x3b1c13f6	0.0023815609
118	0xbeb48a27	-0.35261652
119	0x3f2ac6be	0.66709507
120	0xbeee88bb	-0.46588692
121	0xbebee42b	-0.37283453
122	0xbe356e56	-0.17717871
123	0xbf88830a	-1.066499
124	0xbf31090b	-0.69154423
125	0xbeed6407	-0.46365377
126	0xbf224382	-0.6338426
127	0xbf9f3cc7	-1.2440423
128	0xbf371509	-0.7151647
129	0x3e9a1128	0.30091214
130	0xbf7162c6	-0.9429134
131	0x3d7d7f48	0.061888963
132	0xbd7b557a	-0.061360814
133	0xbf9e19ad	-1.2351586
134	0x3f6fa30a	0.9360815
135	0x3ca75f8e	0.020431306
136	0xbf84fb65	-1.038922
137	0xbfa010a3	-1.2505077
138	0xbe60ce6a	-0.2195374
139	0x3f5d75e8	0.86508036
140	0xbf1936bb	-0.5984914
141	0x3c89de8d	0.016829753
142	0x3f2bc763	0.67101115
143	0x3d3385e3	0.043828856
144	0xbe2ba667	-0.16762696
145	0x3c9bb488	0.019006982
146	0xbea822ae	-0.32838959
147	0x3f3481c2	0.70510495
148	0xb9f2b8a7	-0.00046295414
149	0x3eb9ecce	0.3631348
150	0x3d23867d	0.03992318
151	0xbe804ba1	-0.250577
152	0xbed51ff6	-0.41625947
153	0xbf96072a	-1.1720936
154	0x3f3b069d	0.73056966
155	0x3e74c4cd	0.23903199
156	0x3da9d882	0.08293249
157	0x3f8a5211	1.0806295
158	0xbb9ac3c6	-0.004723045
159	0xbf3667a3	-0.7125189
160	0xbe44f230	-0.19233012
161	0xbf773786	-0.965691
162	0xbd851bca	-0.06499441
163	0xbdffd3ba	-0.124915555
164	0xbec45c48	-0.38351655
165	0x3f5fff9d	0.8749941
166	0x3f1b6ee4	0.6071608
167	0xbfa1f1ce	-1.2651918
168	0x3f81c7da	1.0139115
169	0xbda20487	-0.0791102
170	0x3ea0cd6c	0.31406724
171	0x3b9287ac	0.0044717398
172	0x3f945bbf	1.1590499
173	0xbcc817ca	-0.024425406
174	0xbdff0a02	-0.12453081
175	0x3ec09743	0.37615404
176	0xbd73228c	-0.05935912
177	0xbe444b4b	-0.19169347
178	0xbccd720c	-0.025078796
179	0xbc770c15	-0.015078564
180	0xbe431d1e	-0.19054076
181	0xbe325bb1	-0.1741779
182	0xbf5df8fe	-0.86708057
183	0x3d156e51	0.03648216
184	0x3f22d4f2	0.6360618
185	0x3f52fe66	0.8241943
186	0x3d02dc90	0.031948626
187	0x3ec16b3b	0.37777123
188	0x3c713b4d	0.014723611
189	0xbf70c39b	-0.9404847
190	0xbdf8a88e	-0.12141524
191	0xbd0a3600	-0.033742905
192	0xbf216f57	-0.63060516
193	0x3e9a9aa1	0.30196097
194	0x3f2a706f	0.6657781
195	0x3e5edb0c	0.21763247
196	0x3f756de5	0.9587081
197	0xbf19dd73	-0.6010353
198	0x3f58cc71	0.8468695
199	0xbe93c001	-0.28857425
200	0xbed47cc9	-0.41501454
201	0xbe4a43de	-0.19752452
202	0xbd133ebc	-0.0359485
203	0x3d8983b7	0.06714576
204	0x3f86f704	1.0544133
205	0xbf67178d	-0.9027031
206	0xbf3fe68e	-0.74961174
207	0x3f5969c9	0.8492704
208	0x3c69e3fe	0.014275549
209	0xbef46a5d	-0.477374
210	0x3e509ae8	0.20371592
211	0xbe21b476	-0.15791497
212	0xbe38fdc2	-0.18065551
213	0xbcbd4016	-0.023101848
214	0xbe8d5285	-0.2760202
215	0xbea38305	-0.31935897
216	0xbf73b394	-0.9519589
217	0xbf15df6c	-0.5854404
218	0x3e3bd1ed	0.18341799
219	0x3f167a47	0.5878033
220	0x3ec7f869	0.3905671
221	0x3f385a18	0.7201247
222	0x3f4ad52a	0.7923151
223	0x3f787a67	0.9706177
224	0xbebc8dd9	-0.3682697
225	0x3ee5ea01	0.44905093
226	0x3f082781	0.5318528
227	0x3f571ef8	0.8403163
228	0xbda85811	-0.08219922
229	0x3f4795be	0.77962863
230	0xbf0c9630	-0.5491667
231	0x3e5a310d	0.21307774
232	0x3f310469	0.69147354
233	0x3f0dc62c	0.5538051
234	0xbd51de10	-0.051237166
235	0x3ee69fc3	0.45043764
236	0x3f371f6c	0.7153232
237	0x3d94dc15	0.0726854
238	0xbe436a40	-0.190835
239	0x3f291af1	0.66056734

fc2.bias f4 [2]
0	0x3fac7a63	1.347485
1	0x3f8b1c7b	1.0868067
