BC-DQN-DDQN/best_model_CartPole-v0.pt (torch, 4895 bytes, 4 tensors)

fc1.weight f4 [120, 4]
0.58750755 -0.15875714 0.04160747 -0.11975038 0.3922335 -0.3398168 -0.55253726 -0.044965394
-0.17102674 0.26331362 -0.14486161 0.18663001 -0.46667755 -0.70778793 -1.0646813 -1.2802397
0.50263804 -0.2580796 0.33930925 0.31972334 0.12149419 0.09296564 0.13846205 -0.14494126
-0.2707321 0.039027672 0.023893647 0.7064075 0.40999243 -0.22686519 -0.45929986 -0.4293553
-0.3129127 -0.09485553 -0.28671557 -0.09773208 -0.39478707 0.24178635 -0.35792932 -0.22066951
0.46355322 0.14669861 0.68749744 0.6787835 0.31676915 -0.56549567 -0.35212404 -0.1926133
-0.4772343 -0.25479168 -0.7053262 -0.86105114 0.21640362 1.1953727 1.1348191 0.8667941
0.11143612 -0.5125619 -0.22779939 -0.92568123 -0.34040278 0.39735845 -0.39409223 -0.04377686
0.015818795 0.3573043 -0.105429016 0.03679968 -0.40151924 0.16186544 0.23128994 -0.16958182
-0.0007827835 0.20753945 0.3212969 -0.42697433 -0.09727395 -0.021217922 -0.10006178 0.106020175
0.34998554 0.24542779 0.14676851 -0.42838943 -0.82228595 0.6378347 0.2988274 0.950183
-0.5942007 -0.47657925 0.45282823 0.34619743 -0.1354602 1.3463509 1.1611415 1.0543522
-0.36710203 -0.0022527478 0.42561737 0.074332505 0.13453442 -0.13911016 -0.24752629 0.063005075
-0.30433327 0.284023 0.25257993 0.19097453 -0.23473315 -0.2586752 0.14656554 -0.36302444
-0.18759532 -0.29907128 0.30003062 0.01720985 0.11304738 -0.3414508 0.15338269 -0.1608418
-0.09354107 -0.8859494 -1.2322358 -1.5873462 0.15521511 0.2961098 -0.54302883 -0.4580361
0.16031066 -0.22202887 -0.28096816 -0.4415405 -0.33664176 -0.6041674 0.0064446754 -0.51104105
0.61477464 0.39548805 -0.22011343 -0.5840726 -0.19359404 0.00063409645 -0.10494692 0.018209051
0.06590352 -0.25419724 0.02531709 -0.43384305 0.3836859 -0.47181305 0.22359614 -0.25976765
-0.5640955 -0.013100165 0.24294636 0.75108576 0.3906613 -0.051936492 -0.45428863 0.29999566
-0.14465171 0.18153526 -0.17621873 0.23969261 -0.410842 -0.06369766 -0.3532439 -0.726239
0.5443705 -0.3962058 -0.65970826 -0.23684742 -0.8469474 0.7305304 0.32277095 0.86119336
-0.5930023 -0.09922737 -0.22551987 0.63544583 -0.42866555 -0.49471256 0.1906832 -0.46108484
0.24033283 -0.62499183 -0.57829237 -0.23114258 -0.33306187 0.3746424 -0.1260469 0.087620355
-0.11750058 0.80959994 0.80238587 0.6197703 -0.1303727 -0.48901832 -0.37486646 -0.27744302
0.48367053 0.054076444 0.00048137314 -0.31510854 -0.7088224 0.50131077 -0.053201873 0.8716
0.5821521 -0.33356366 -0.47167495 -0.069302276 0.32407787 -0.27705398 0.21496008 -0.6650367
0.54694074 -0.43975252 -0.6114005 -0.1179646 -0.15669031 -0.25079942 -0.4506797 -0.47802213
0.095050074 0.3497696 0.34458447 -0.0073858188 0.037515916 0.40173823 0.8880916 0.91826344
0.51095027 -0.28378814 -0.06464679 -0.032739975 0.013152579 -0.6453912 -0.056646798 -0.24092162
-0.024562659 0.038176376 -0.084963545 -1.0713395 0.034211468 0.25365093 0.38707274 -0.33837113
0.36517814 1.0566558 1.255064 0.829342 0.34615096 0.016718177 -0.4903303 -0.17717943
00000000: e566 163f 3b91 22be 986c 2a3d b03f f5bd
00000010: d4d2 c83e 78fc adbe 1573 0dbf a22d 38bd
00000020: a221 2fbe 0bd1 863e 9a56 14be f01b 3f3e
00000030: 5cf0 eebe 9731 35bf 7a47 88bf e5de a3bf
00000040: e3ac 003f 0223 84be f1b9 ad3e c7b2 a33e
00000050: f2d1 f83d c564 be3d ffc8 0d3e 7b6b 14be
00000060: 669d 8abe 7bdb 1f3d 9cbc c33c 1fd7 343f
00000070: 87ea d13e 594f 68be 5a29 ebbe 75d4 dbbe
00000080: 1836 a0be 9e43 c2bd 62cc 92be c227 c8bd
00000090: 8821 cabe d796 773e 8342 b7be 30f7 61be
000000a0: d956 ed3e 2938 163e d5ff 2f3f c1c4 2d3f
000000b0: 912f a23e 53c4 10bf 9a49 b4be 6c3c 45be
000000c0: 0e58 f4be 0e74 82be 4290 34bf d96d 5cbf
000000d0: e998 5d3e f901 993f c141 913f 38e6 5d3f
000000e0: 9f38 e43d 4237 03bf 3e44 69be 72f9 6cbf
000000f0: 4649 aebe 9172 cb3e 75c6 c9be 5d4f 33bd
00000100: 6b96 813c 97f0 b63e 2beb d7bd 43bb 163d
00000110: ee93 cdbe 0ec0 253e 45d7 6c3e dba6 2dbe
00000120: b633 4dba 3985 543e 0781 a43e 619c dabe
00000130: 9137 c7bd 35d1 adbc 31ed ccbd 1b21 d93d
00000140: 4e31 b33e 6c51 7b3e 7c4a 163e dc55 dbbe
00000150: 5581 52bf 2349 233f e8ff 983e 313f 733f
00000160: 891d 18bf 3202 f4be 1ad9 e73e ca40 b13e
00000170: 14b6 0abe 3a55 ac3f 49a0 943f 03f5 863f
00000180: ccf4 bbbe d6a2 13bb 85ea d93e a43b 983d
00000190: 64c3 093e e572 0ebe 8877 7dbe ce08 813d
000001a0: 92d1 9bbe 766b 913e 2852 813e d48e 433e
000001b0: e35d 70be 1371 84be 4715 163e 57de b9be
000001c0: fd18 40be df1f 99be 9d9d 993e acfb 8c3c
000001d0: 6285 e73d a4d2 aebe 5a10 1d3e b6b3 24be
000001e0: 7692 bfbd 94cd 62bf e7b9 9dbf 292e cbbf
000001f0: b6f0 1e3e b49b 973e f003 0bbf b583 eabe
00000200: 7a28 243e 895b 63be 0fdb 8fbe 9911 e2be
00000210: 4f5c acbe b7aa 1abf db2d d33b 96d3 02bf
00000220: df61 1d3f 697d ca3e 6a65 61be c885 15bf
00000230: 843d 46be 7e39 263a 69ee d6bd 262b 953c
00000240: 6df8 863d 2426 82be c965 cf3c ad20 debe
00000250: 7a72 c43e 7b91 f1be 63f6 643e 4400 85be
00000260: 9068 10bf 13a2 56bc eec6 783e 2847 403f
00000270: c204 c83e 5cbb 54bd 8598 e8be 0899 993e
00000280: 941f 14be 61e4 393e af72 34be fb71 753e
00000290: e259 d2be eb73 82bd 62dc b4be cdea 39bf
000002a0: dd5b 0b3f 7ddb cabe a4e2 28bf 2188 72be
000002b0: 8bd1 58bf 0a04 3b3f 3c42 a53e 2b77 5c3f
000002c0: 00cf 17bf b837 cbbd aeee 66be 94ac 223f
000002d0: 0d7a dbbe f74a fdbe 7542 433e 5013 ecbe
000002e0: cf19 763e 77ff 1fbf f80a 14bf a4b0 6cbe
000002f0: 1687 aabe 21d1 bf3e 7012 01be 4d72 b33d
00000300: 25a4 f0bd f141 4f3f 2969 4d3f 44a9 1e3f
00000310: 6c80 05be 9c60 fabe 7fee bfbe 030d 8ebe
00000320: aaa3 f73e 437f 5d3d cf60 fc39 e855 a1be
00000330: 6375 35bf e755 003f 35ea 59bd 2d21 5f3f
00000340: ec07 153f dbc8 aabe 617f f1be 5aee 8dbd
00000350: 89ed a53e 05da 8dbe 7f1e 5c3e d83f 2abf
00000360: 4f04 0c3f 3e27 e1be be84 1cbf 6d97 f1bd
00000370: 6d73 20be c868 80be 7dbf e6be 51bf f4be
00000380: 9da9 c23d 0015 b33e 606d b03e bd04 f2bb
00000390: 4aaa 193d a2b0 cd3e f959 633f 5013 6b3f
000003a0: a3cd 023f ae4c 91be 8965 84bd 5a1a 06bd
000003b0: ea7d 573c 5c38 25bf 7906 68bd 28b4 76be
000003c0: a137 c9bc d55e 1c3d 5e01 aebd a721 89bf
000003d0: 5321 0c3d 89de 813e 662e c63e fb3e adbe
000003e0: a1f8 ba3e 7f40 873f f0a5 a03f c24f 543f
000003f0: b33a b13e 8ff4 883c 930c fbbe 866e 35be

fc1.bias f4 [120]
1.5657244 0.9820073 0.51020736 -0.784559 -0.3978412 1.1612828 0.18613079 -0.20077932
-0.27896014 0.5375215 -0.36193496 1.4012431 -0.3635117 0.24079382 -0.03855708 -0.29968154
0.66785026 -0.2803898 0.2933784 0.9004363 0.20391878 -0.08428788 -0.37906379 0.2074245
-0.4715852 1.546111 -0.40804708 1.1244597 0.96381605 0.21050102 -0.6481311 -0.04252037
1.347574 -0.17995974 -0.71841604 0.5496494 0.942036 1.126223 -0.3517231 -0.38571167
1.3222903 -0.010938146 1.0369092 0.068592735 -0.07665223 -0.41732135 1.5523983 0.39905965
0.055856716 0.69815344 0.102806084 -0.23658875 1.0533998 -0.28081346 0.7033937 -0.29944062
0.7133582 -0.2387634 1.2671809 1.469484 -0.49088624 -0.40111813 0.36231744 0.9459087
1.0783712 -0.29950905 1.5122399 -0.12315757 0.6446913 -0.34808466 -0.028964601 0.30490276
0.9141684 -0.06464766 0.79377687 1.4928882 0.04250078 0.6514894 0.33421552 -0.40083694
1.1978306 -0.35328048 -0.3627863 0.0496354 0.3428539 -0.109553635 -0.21362916 -0.11780139
1.0134917 0.26843297 -0.033811785 0.05128465 0.32428324 -0.20788467 -0.4100964 -0.31993535
0.7001378 1.4425629 0.13216646 0.65930283 0.97563004 0.80716044 -0.38063738 1.5214319
0.4328825 0.5067689 -0.41072097 0.2307331 -0.123163946 1.3585398 -0.90205646 1.2179093
0.91980785 0.46052065 -0.1440724 -0.14042781 0.56102145 -0.5768476 -0.30949152 1.0126057
00000000: a869 c83f d564 7b3f f39c 023f dcd8 48bf
00000010: d7b1 cbbe eaa4 943f 1299 3e3e 1899 4dbe
00000020: ddd3 8ebe 029b 093f 8a4f b9be ef5b b33f
00000030: 351e babe a892 763e 07ee 1dbd dc6f 99be
00000040: 3cf8 2a3f 408f 8fbe b235 963e fe82 663f
00000050: 16d0 503e 209f acbd a614 c2be 1767 543e
00000060: 9e73 f1be f7e6 c53f 8ceb d0be 4cee 8f3f
00000070: a6bc 763f 948d 573e ebeb 25bf d729 2ebd
00000080: 4e7d ac3f 5e47 38be 1dea 37bf d3b5 0c3f
00000090: 4529 713f 1328 903f 0d15 b4be 007c c5be
000000a0: cf40 a93f e935 33bc 71b9 843f 597a 8c3d
000000b0: d8fb 9cbd 25ab d5be fdb4 c63f 8c51 cc3e
000000c0: 03ca 643d 2fba 323f ff8b d23d 5244 72be
000000d0: ced5 863f c8c6 8fbe 9c11 343f 4850 99be
000000e0: a59e 363f 657e 74be fc32 a23f 0d18 bc3f
000000f0: 7155 fbbe 5b5f cdbe ac81 b93e 1327 723f
00000100: 1108 8a3f 4059 99be 1491 c13f 093a fcbd
00000110: 7d0a 253f 2738 b2be 2c47 edbc 371c 9c3e
00000120: f106 6a3f fe65 84bd f634 4b3f f616 bf3f
00000130: 4c15 2e3d 02c8 263f 4c1e ab3e 803a cdbe
00000140: 8352 993f 2ee1 b4be 20bf b9be 7d4e 4b3d
00000150: 8c8a af3e a85d e0bd 9ac1 5abe db41 f1bd
00000160: 19ba 813f 0c70 893e 3a7e 0abd da0f 523d
00000170: 7408 a63e b8df 54be 28f8 d1be 91ce a3be
00000180: 3b3c 333f e7a5 b83f a556 073e 12c8 283f
00000190: e4c2 793f 11a2 4e3f e7e2 c2be 48be c23f
000001a0: c6a2 dd3e 9bbb 013f 054a d2be 4c45 6c3e
000001b0: 613d fcbd a2e4 ad3f 2ced 66bf 74e4 9b3f
000001c0: 8778 6b3f 5dc9 eb3e b787 13be 4fcc 0fbe
000001d0: 1a9f 0f3f 49ac 13bf ac75 9ebe 109d 813f

fc2.weight f4 [2, 120]
1.0611837 0.74208844 0.26360527 -1.4430518 -0.19188583 0.7233774 -0.45240796 -0.558319
0.03387357 0.23919179 -0.3098863 1.0512654 -0.7014686 -1.2548184 -0.11808651 -0.23406176
0.37171137 -0.12548882 0.20525676 0.4496039 0.09197352 -0.7855432 -0.16472869 -1.3989398
-0.06513102 0.9684751 0.030090615 0.7651607 0.3206737 0.15718336 -1.3226925 -0.14990002
1.0225265 -0.3492035 -0.69952375 0.32605857 0.6789932 0.7499666 -0.4840034 -0.10483157
0.6913391 -0.46444607 0.89305174 -0.94097865 -0.3142779 -0.14482132 1.2143085 0.20142905
-0.72273576 0.58807766 0.009052469 -0.60462695 0.8386221 -0.51989055 0.677976 -0.54708797
0.3617686 -0.5801084 0.8248911 0.99933285 -0.7158796 -0.20865688 -1.3595667 0.7398612
0.9250026 -0.05771537 0.8946159 -0.018625943 0.32439494 -0.08572464 -0.27056372 0.15878433
0.6681989 -0.5550753 0.3532062 1.1563176 -0.9118715 0.4131527 -1.0196136 -0.11281601
0.7676344 -0.07473741 -0.0015279071 0.08613998 0.13689987 -0.25093943 -0.32944438 -0.034310613
0.8048556 -0.28424287 -0.5472232 -0.78261095 0.2539117 -0.09441675 -0.98910546 -0.5480919
0.5316287 1.0120881 -1.3177328 0.34540892 0.7341147 0.61565655 -0.08984735 0.8964267
0.41775584 0.20944402 -0.46070012 0.09819926 -0.28808334 0.79704016 -1.7649788 0.8855167
0.34649426 -1.4899561 -0.37697503 -0.39658105 0.012436804 -1.025901 -0.6233556 0.821586
1.0740901 0.8012645 0.32658306 -1.1425782 -0.24143746 0.6947889 0.18053868 -0.36703843
0.042344905 0.15809502 -0.7423066 1.0290023 -0.82257 -1.1772895 -0.97105664 -0.13398413
0.46779463 0.009914375 -0.101086184 0.67552924 -0.24748196 -0.9409566 -0.5382596 -1.3994608
0.024016878 1.1512103 -0.009134904 0.6043049 0.49592328 0.08994903 -1.6815097 -0.4864747
0.86341393 -0.33590376 -0.59086573 0.36151507 0.54409707 0.8085064 -0.5932329 -0.08120869
0.9306244 -0.5908305 0.7457835 -0.8417038 -0.24968818 -0.16437764 1.1272578 0.24763086
-0.894287 0.42795175 -0.23219861 -0.7285782 0.77898264 -0.31310573 0.59549636 -0.34657413
0.34460965 -1.0216602 0.94729257 1.0288054 -0.6011007 -0.14701225 -1.0773197 0.5689385
0.7562949 -0.21433084 1.0860461 0.018695703 0.27510855 -0.02811518 -0.19853202 -0.70144016
0.49066392 -0.41618207 0.5580516 1.0260425 -0.91521746 0.37986913 -0.046621226 -0.24273129
0.86098516 -0.20574528 0.030278284 0.031404812 0.049866974 -0.34137475 -0.6316278 -0.18338
0.6931668 0.08613028 -0.7972072 -1.0842582 -0.05469694 -0.11470791 -1.2932296 -0.26375315
0.32824734 0.8455745 -1.4972954 0.44128564 0.64837605 0.65762675 -0.030503357 1.0479364
0.14379221 0.2436171 -0.5737317 0.21682738 -0.2276485 0.85690254 -1.3032881 0.8587996
0.43672135 -0.77782154 -0.87950367 -0.2685287 0.29720807 -1.1907743 -0.84794426 0.60465336
00000000: ded4 873f 82f9 3d3f 45f7 863e ecb5 b8bf
00000010: b87d 44be 432f 393f 04a2 e7be feed 0ebf
00000020: 03bf 0a3d b1ee 743e 6ba9 9ebe dd8f 863f
00000030: 7293 33bf e49d a0bf 57d7 f1bd e3ad 6fbe
00000040: f450 be3e 2480 00be d42e 523e 7b32 e63e
00000050: 9d5c bc3d 5c19 49bf a3ae 28be 7610 b3bf
00000060: 6a63 85bd fced 773f 9880 f63c 92e1 433f
00000070: 582f a43e adf4 203e fd4d a9bf 647f 19be
00000080: 26e2 823f cdca b2be fd13 33bf 26f1 a63e
00000090: 80d2 2d3f d0fd 3f3f 4bcf f7be efb1 d6bd
000000a0: 99fb 303f e0cb edbe 0a9f 643f fae3 70bf
000000b0: 08e9 a0be 0a4c 14be 766e 9b3f 6b43 4e3e
000000c0: 3605 39bf 428c 163f cf50 143c d5c8 1abf
000000d0: f0af 563f 8c17 05bf d68f 2d3f f50d 0cbf
000000e0: bc39 b93e fc81 14bf 102c 533f 47d4 7f3f
000000f0: e343 37bf 26aa 55be 4806 aebf 8b67 3d3f
00000100: f8cc 6c3f f466 6cbd 8c05 653f 6f95 98bc
00000110: 1817 a63e 6690 afbd 5487 8abe 5c98 223e
00000120: 150f 2b3f 6a19 0ebf 71d7 b43e 3702 943f
00000130: 6970 69bf c088 d33e b382 82bf 150c e7bd
00000140: b083 443f ed0f 99bd 0e44 c8ba 286a b03d
00000150: 7b2f 0c3e 227b 80be efac a8be 4989 0cbd
00000160: 040b 4e3f 4888 91be d216 0cbf 3159 48bf
00000170: b700 823e 925d c1bd 0436 7dbf c04f 0cbf
00000180: d218 083f 1a8c 813f 78ab a8bf 70d9 b03e
00000190: f1ee 3b3f ab9b 1d3f e301 b8bd 387c 653f
000001a0: 18e4 d53e 7e78 563e e3e0 ebbe b21c c93d
000001b0: a97f 93be d30a 4c3f d3ea e1bf 39b1 623f
000001c0: b267 b13e e2b6 bebf df02 c1be ac0c cbbe
000001d0: bdc3 4b3c b950 83bf 3c94 1fbf 7653 523f
000001e0: c97b 893f ac1f 4d3f e535 a73e 0140 92bf
000001f0: 623b 77be afdd 313f 22df 383e 76ec bbbe
00000200: da71 2d3d a9e3 213e ce07 3ebf 59b6 833f
00000210: f393 52bf 6cb1 96bf 2b97 78bf 2333 09be
00000220: c782 ef3e e76f 223c 4606 cfbd 7cef 2c3f
00000230: e96b 7dbe 88e2 70bf 62cb 09bf 8821 b3bf
00000240: 0bbf c43c dc5a 933f 90aa 15bc bab3 1a3f
00000250: a8e9 fd3e 3237 b83d b63b d7bf 3613 f9be
00000260: b208 5d3f 94fb abbe fa42 17bf 8118 b93e
00000270: f249 0b3f 47fa 4e3f 1dde 17bf be50 a6bd
00000280: 673d 6e3f ab40 17bf abeb 3e3f e679 57bf
00000290: 42ae 7fbe 9d52 28be fc49 903f f292 7d3e
000002a0: feef 64bf 7e1c db3e 79c5 6dbe 1a84 3abf
000002b0: 686b 473f 654f a0be 7372 183f 2a72 b1be
000002c0: ad70 b03e c3c5 82bf c481 723f e5af 833f
000002d0: bce1 19bf 618a 16be 9de5 89bf f4a5 113f
000002e0: 8b9c 413f 8b79 5bbe 8f03 8b3f bb27 993c
000002f0: 07db 8c3e ce51 e6bc fa4b 4bbe 9591 33bf
00000300: 4d38 fb3e d115 d5be 78dc 0e3f 5c55 833f
00000310: b14b 6abf 357e c23e e6f5 3ebd 8d8e 78be
00000320: 8669 5c3f e4ae 52be 2a0a f83c 55a2 003d
00000330: 5041 4c3d acc8 aebe 5cb2 21bf f7c7 3bbe
00000340: 6173 313f 1265 b03d c515 4cbf f9c8 8abf
00000350: e609 60bd fbeb eabd 8c88 a5bf a70a 87be
00000360: 0910 a83e 9277 583f 60a7 bfbf 31f0 e13e
00000370: f9fb 253f 3a5a 283f 2de2 f9bc c822 863f
00000380: 443e 133e c376 793e 15e0 12bf ff07 5e3e
00000390: b01c 69be f75d 5b3f 25d2 a6bf 4ada 5b3f
000003a0: f199 df3e 501f 47bf 2727 61bf 987c 89be
000003b0: a82b 983e 4b6b 98bf e012 59bf 90ca 1a3f

fc2.bias f4 [2]
1.0783226 1.304349
00000000: 7a06 8a3f e8f4 a63f
